deploy/exported_policy/go1/policy_1.pt (torch, 768520 bytes, 8 tensors)

weight f4 [512, 45]
000000 97 f6 18 be f6 eb 2c be 60 4b 80 3c f7 28 28 3d
       -0.14937817 -0.16886887 0.015660942 0.041054692
000010 58 5b 59 3e ca 87 59 3c 13 9e 2a be de 34 f1 bd
       0.21226251 0.013277004 -0.16661863 -0.11777662
000020 c4 04 79 3e 38 a2 aa be e3 1f 0f be 30 14 67 3c
       0.24318224 -0.33326888 -0.13977008 0.014103934
000030 09 08 34 3e 8f 7b 21 3e 0c c9 ad bd 00 e0 45 3e
       0.1758119 0.1576979 -0.08485612 0.1932373
000040 7e ed ea 3d f8 79 91 3c f5 9a ce bd e8 6a 84 3d
       0.11471079 0.017758355 -0.100881495 0.06465703
000050 3b f1 1c 3e d3 e8 02 be 45 ca 4a 3d 4a bc 21 3e
       0.15326397 -0.12784128 0.049509306 0.15794483
000060 c4 2b dc 3d 8a 35 8a 3c 2b 5b 5b 3d 54 d8 f9 3d
       0.10750535 0.016871233 0.05355374 0.121994644
000070 81 1d 3a be d2 b4 a1 3d 6e 9b e4 bc e0 df ab 3a
       -0.18175317 0.07895817 -0.027906146 0.0013112985
000080 ae ad 27 3e 2f 44 41 be ee 80 c6 bd f0 3b 9e 3d
       0.16374847 -0.18873666 -0.0969256 0.07726276
000090 28 1d e6 bc 66 09 ac 3a 8a 1d 47 3d 51 71 d9 3d
       -0.028090075 0.001312536 0.048612155 0.106173165
0000a0 2e bc 50 3c 75 64 da bc 71 72 9c bd b7 dc 66 bd
       0.012740178 -0.02665923 -0.076390155 -0.056362834
0000b0 8c bd eb bd 7a ab c9 3d c2 71 4b bc e5 42 77 3d
       -0.115107626 0.0984716 -0.012417259 0.06036653
0000c0 8d 9d cb bd 2e 11 05 be b3 f1 14 3d 1e 47 c5 bd
       -0.0994216 -0.12994835 0.036363315 -0.09632705
0000d0 2d 49 52 3e 17 2e b0 be 46 11 6f 3e 03 cd a9 bd
       0.20535727 -0.34410164 0.23346433 -0.08291056
0000e0 42 a6 a5 3c 6a 41 92 3d 64 28 ad be 86 eb 5a be
       0.02022088 0.07141383 -0.33819878 -0.21378908
0000f0 96 ee 32 3e db 03 a4 3d 4d 0f f5 bd e0 75 88 be
       0.17473826 0.08008548 -0.11965809 -0.2665243
000100 da 2e f5 bd a7 b0 b9 3c 8b 64 a4 bd eb 2f 48 bd
       -0.11971827 0.022667242 -0.080269895 -0.048873823
000110 ba ec aa 3d d8 6e 27 3b f0 e6 8f be 24 51 2f bd
       0.08345933 0.0025548246 -0.2810588 -0.04280199
000120 0b 42 08 3e 07 d0 12 3e 16 72 6f bd 34 e6 11 3e
       0.13306443 0.14337169 -0.05845841 0.14247972
000130 ba af ad 39 6d 43 25 3e 09 4b 24 3d 38 85 ea bd
       0.00033128058 0.16139002 0.04011062 -0.11451191
000140 02 d2 2a 3c 10 4e d5 bd a8 52 74 bd 7d aa 13 bb
       0.010426046 -0.1041528 -0.05964914 -0.002253204
000150 94 ed 71 bd 56 a0 80 3c 2e cb da 3d b6 41 30 3c
       -0.059064463 0.015701454 0.10683285 0.010757854
000160 52 db 44 3d 20 28 d2 bd be 42 19 bb 22 2c 90 3c
       0.048060723 -0.102615595 -0.0023385729 0.01759917
000170 c9 d3 a0 bc 18 32 5d be 6f 58 48 bd cf e3 6d bd
       -0.019632237 -0.2160114 -0.04891246 -0.058078583
000180 42 a4 49 be c7 20 0f bc b1 df 63 bc 86 c4 9a 3e
       -0.19691566 -0.008735842 -0.013908313 0.3022806
000190 6c 49 7a bd 0e cf ee bc cc 57 23 be c5 e3 b6 be
       -0.061105177 -0.029151466 -0.1595146 -0.3572065
0001a0 ed 0b 6b 3d 3f cb 30 be 55 b5 d8 3d 33 4f be bd
       0.05738442 -0.17265032 0.10581461 -0.0929245
0001b0 41 cc ed 3d a6 01 4d 3e 73 44 35 3e d5 e2 8d 3e
       0.11611224 0.2002016 0.17701893 0.27712122
0001c0 06 9c dc 3c eb 0e 47 be 56 c2 44 bd cf fe 8c be
       0.026929867 -0.19439285 -0.048036896 -0.27538154
0001d0 63 ec 7e bc ff c5 04 be 8a 3f 22 be a7 57 d5 3d
       -0.015559289 -0.12966155 -0.1584455 0.10417109
0001e0 e8 90 c5 3b d0 00 44 3e 4a 14 db 3d 4c 23 61 bd
       0.006029237 0.19140935 0.10697229 -0.054965302
0001f0 fc fe b9 bd e0 e0 bf 3d 10 e9 93 3d c4 15 18 bd
       -0.090818375 0.093690634 0.072221875 -0.037130132
000200 0c e8 2c be 97 42 8f 3d 8d c0 1c 3d 05 cf e6 bd
       -0.16885394 0.06995123 0.03826957 -0.112699546
000210 07 bc 4b bc e2 c9 b5 bc 8f 77 92 3d 0e d5 8d 3c
       -0.012434966 -0.022190992 0.0715171 0.017313506
000220 99 e8 49 3e 95 d3 81 3e 86 12 e4 3d e7 71 45 be
       0.19717635 0.25356737 0.111363456 -0.19281732
000230 b0 0f a5 bd 22 96 97 bc 4e f9 3b bd 91 a3 c9 bd
       -0.08059633 -0.018504206 -0.045892052 -0.09845651
000240 bd 00 67 be c3 3c 8b 3d 0d af e1 bd 5c c7 12 3e
       -0.22558875 0.06798699 -0.110197164 0.14333862
000250 76 3d a9 bd 6c 0a ba bd aa 69 47 3d 1b 53 8b ba
       -0.08263676 -0.09084019 0.048684753 -0.0010629626
000260 7f a1 f1 bc 62 58 20 3c 8b b9 85 be 5c c9 0a bd
       -0.029495953 0.009786697 -0.2611812 -0.033883438
000270 97 5b 93 bd df 93 64 be 34 dd 06 3e 13 ba 49 be
       -0.07195204 -0.22322033 0.1317032 -0.19699888
000280 d0 ba 18 be 93 e6 04 be 89 0f ca bd 8b fe 2b 3d
       -0.14915013 -0.12978582 -0.09866244 0.041990798
000290 4f 0b 00 3e 46 14 12 3b 81 82 41 be 21 07 66 3e
       0.12504314 0.0022289916 -0.1889744 0.22463657
0002a0 38 22 0e bd 79 d9 af bd 2e a1 b9 bd 8f ca 1c 3c
       -0.034700602 -0.085864015 -0.09063946 0.009569778
0002b0 28 f2 97 bd 52 14 b8 3c 5b 70 23 be 07 77 75 bd
       -0.074192345 0.022470627 -0.15960829 -0.059927966
0002c0 3e bd 0f be 8f af d3 bd 1a 12 ce bd 89 28 b4 bd
       -0.14037034 -0.103362195 -0.10062046 -0.08796794
0002d0 8c 79 2f 3e 89 10 19 bd c7 6f ff bd ba e0 29 3e
       0.1713621 -0.037369285 -0.12472492 0.16589633
0002e0 bb fb 3e 3c 45 c3 21 be c6 08 46 be b5 cf af 3c
       0.011656697 -0.15797146 -0.19339284 0.021461347
0002f0 8d 14 12 be f9 4a 69 3d 62 6c 23 bd d5 7f 6a be
       -0.14265652 0.056956265 -0.039898284 -0.22900327
000300 d2 6b 21 3e f0 e1 c9 3c 79 7f 85 3d d8 c0 52 be
       0.15763786 0.024643868 0.06518454 -0.20581377
000310 b2 a7 34 be a7 6d f0 3d 0d d6 2d 3e 17 fe 21 3e
       -0.17642096 0.117396645 0.16976185 0.15819584
000320 7f 7b 35 bd 67 4b 59 bd 07 54 b4 bd e7 07 a4 bd
       -0.04430723 -0.053050425 -0.088050894 -0.0800932
000330 88 c7 83 3e 8d 88 14 3e 21 b6 21 3d 30 9d eb bd
       0.25738168 0.14505215 0.039480332 -0.115045905
000340 cd 44 28 3e b7 eb 4b 3b 3d 57 84 bc 67 0b c7 bd
       0.16432495 0.0031115839 -0.01615488 -0.09718972
000350 0c 28 22 3e 47 f6 af 3d 89 88 07 3d de 2f f8 3d
       0.15835589 0.085918956 0.033089194 0.12118505
000360 ba fb c0 3d 22 ac ba 3d 8b eb 96 bc a8 5e 17 bd
       0.09423013 0.09114863 -0.018422863 -0.036955506
000370 97 9e 7c bd 86 04 56 bd 6c a7 dd 3d 3f 1d af bd
       -0.06167468 -0.052250408 0.10822949 -0.085505
000380 a3 cd 6c 3d 28 1e 3b 3e f4 a9 ad 3d df 3a 28 3d
       0.057813298 0.18273222 0.084796816 0.04107177
000390 6e 7a 37 be 0e af 48 be cb 65 7c 3d a5 ad d1 bd
       -0.17917797 -0.19598028 0.061620515 -0.10238198
0003a0 48 26 86 3d 15 31 ae 3e 9f ea 12 be 72 8a 4d be
       0.0655027 0.34021822 -0.14347313 -0.20072344
0003b0 f4 cd 0f be 66 bf fd 3d 34 86 a6 3c fe f2 1b 3e
       -0.14043409 0.12390022 0.020327665 0.15229413
0003c0 71 a4 2e 3e 62 d3 71 be 58 95 92 3c 09 5c bb bd
       0.17054917 -0.23615792 0.017893478 -0.09148414
0003d0 1b 0d 24 3e 0f e8 1b 3d 90 8c 06 be 65 f9 4f bd
       0.16020624 0.038063105 -0.13139558 -0.05077495
0003e0 88 0b f6 3b e0 b4 a5 bd 98 e1 7e be bb dc 62 be
       0.007508699 -0.0809114 -0.24890745 -0.22154514
0003f0 8d 8c 32 3e 1d c0 0d be 2e b1 c0 3c 1b d3 e9 3d
       0.17436428 -0.13842817 0.023521986 0.11417218

bias f4 [512]
000000 4e 78 80 3d d1 03 28 bd 9b c1 1b bd ec f1 8c bd
       0.06272946 -0.041019265 -0.038026433 -0.068820804
000010 17 47 b5 bd 33 2c f8 3c f6 ff ae bb 12 ba a7 3d
       -0.0885145 0.030294513 -0.0053405715 0.08189787
000020 d2 5b f1 bd 7c 38 14 be df f1 14 3e 35 a3 d0 bd
       -0.117850915 -0.14474672 0.14545391 -0.10187379
000030 1d ee ee 3d 40 6f be 3c 85 10 e3 bb 21 fa db 3d
       0.1166651 0.023246408 -0.0069294595 0.10741068
000040 1d 15 2b bd 57 79 1d bd 05 e1 10 3d 92 01 52 3d
       -0.041768182 -0.038445797 0.035370845 0.05127103
000050 ca 32 ba 3d 72 2b 1b bd ec 17 a0 3d 89 43 b1 3d
       0.090917185 -0.03788323 0.07817063 0.086554594
000060 22 04 3e bd 4d 5e 93 bd 9f 9a d3 bd d5 df 95 3d
       -0.04639066 -0.07195721 -0.10332226 0.07318083
000070 bd 78 73 bd 58 96 ca bc 86 ad 8a 3d 18 38 8b 3c
       -0.059441317 -0.024729893 0.06771378 0.016994521
000080 e7 dc fa bd c2 77 9f 3d 85 86 f0 bd 7e ee 1a 3d
       -0.12249165 0.07786514 -0.117444076 0.0378251
000090 d8 b7 0c 3d bd 54 02 3e 48 cf 2c 3d 44 93 5b bd
       0.034355015 0.12727638 0.042189866 -0.05360724
0000a0 c9 83 93 bd 0d b6 ca bd 6a b8 cd bd f5 44 05 bd
       -0.072028704 -0.09898005 -0.1004494 -0.032536466
0000b0 4a e7 14 3e e4 a6 66 3d 22 66 54 3d 96 15 2b bd
       0.14541355 0.056311503 0.051855214 -0.041768633
0000c0 af 76 b2 bd 95 c2 9e 3d 95 be 65 3d 00 2a b4 3d
       -0.08714043 0.07751957 0.056089956 0.08797073
0000d0 63 c1 8c bd 87 ff 71 3c bf f7 bf 3d 84 81 98 bb
       -0.06872823 0.014770395 0.09373426 -0.0046541113
0000e0 42 72 c4 3d 66 62 75 bd e4 05 18 be a0 58 9b bd
       0.095921054 -0.059908293 -0.14845997 -0.07585263
0000f0 0b 4a 12 bc f3 52 a8 3d 79 64 0f 3e aa 63 be 3c
       -0.008928786 0.08218946 0.14003171 0.023240883
000100 17 c5 7b 3c ca a9 88 3b 38 09 e9 bd ff bd c7 3c
       0.015366814 0.004170631 -0.113787115 0.02438259
000110 15 e5 ab 3d 34 0a c7 bd 03 65 af 3d 5c 52 80 3b
       0.08393303 -0.09718743 0.08564188 0.003916068
000120 7a a4 9d bd b6 89 15 be d8 df 47 bd 89 05 25 be
       -0.07697387 -0.14603314 -0.04879746 -0.16115393
000130 eb 08 64 3d 57 72 b0 bd 67 70 b0 bd 52 01 2f 3e
       0.055672567 -0.086155586 -0.08615189 0.17090347
000140 26 ca 98 3d fc ae 99 bd 42 85 e8 3d fb ae d5 bc
       0.07460432 -0.07504079 0.11353542 -0.026084414
000150 e6 b7 8a bc c4 01 e3 bd 4a df 7e 3d 16 90 76 bd
       -0.016933393 -0.11084321 0.062224664 -0.060196005
000160 4c 39 1f 3d 80 b7 01 ba f1 c1 a2 3c e1 aa 61 bd
       0.038873002 -0.0004948303 0.01986787 -0.055094603
000170 3f d3 b3 3d 52 c6 ab bd 56 8e f1 3d 55 b0 53 bc
       0.08780526 -0.08387436 0.117947266 -0.012920459
000180 b0 84 57 bd a7 b0 7d bd 9c 14 41 bd 0a 74 74 bd
       -0.052616775 -0.061936047 -0.047138795 -0.059680976
000190 75 f8 bd 3d 56 a4 8e 3d 31 a1 40 bb 32 80 c0 3d
       0.09275905 0.06964938 -0.0029392953 0.09399451
0001a0 0b e8 fd 3c bf 6e 04 bd 50 ae 99 3d 1e 12 f4 3d
       0.030994436 -0.03233218 0.075039506 0.11917518
0001b0 14 66 10 3e 95 1e dd 3d 96 2e f9 bd 2b 06 19 be
       0.1410144 0.10796849 -0.12167089 -0.14943759
0001c0 7d b1 0b 3c 4c bc c1 3d 37 c4 e8 bd 4a 02 95 3c
       0.008526203 0.09459743 -0.1136555 0.018189568
0001d0 fd bf c5 3d 59 7f 30 3d 41 be dd bd 00 e0 5d 3d
       0.096557595 0.0430902 -0.10827304 0.0541687
0001e0 75 b8 36 3d 11 3c d6 3d 7e 44 3e 3d 4d 6f 73 3d
       0.044609506 0.104606755 0.046452038 0.059432317
0001f0 cb 0b cf 3d 1a dd d6 3c d5 0b e8 3c 1a 7c a4 bd
       0.10109671 0.026228476 0.028325954 -0.08031483
000200 9f 3e bf 3d 96 97 10 be 0a 7a d4 bc 24 bb 41 bc
       0.09338116 -0.14120325 -0.025937099 -0.011824403
000210 a8 6e 74 b9 8c 78 f6 bd 65 73 e5 3d a5 fa 86 3d
       -0.00023310876 -0.12034711 0.112036504 0.065907754
000220 1f 51 9d 3c 67 69 99 bd 54 1a 2f bd 8b 1a bb bd
       0.01920372 -0.07490807 -0.042749718 -0.09135922
000230 da 67 ec bd fa a5 91 bd 77 2c 3b bc d7 2e 1a 3d
       -0.115432456 -0.07111736 -0.011424175 0.037642326
000240 e7 1f 1e 3e 42 a9 63 3c f2 cd 00 be 57 53 94 bd
       0.15441857 0.013895335 -0.12578562 -0.07242458
000250 06 86 e8 3d d4 04 0d bd b6 4c 6b bc 18 46 52 bd
       0.11353688 -0.034428433 -0.014361551 -0.051336378
000260 a7 ed ec bd 7d 18 10 3d 1e cf a7 3c 17 a6 28 3b
       -0.11568766 0.035179604 0.020484503 0.0025733763
000270 68 aa bf bd 36 5e da bd 52 12 34 bc 66 9b 47 bd
       -0.09358674 -0.106625006 -0.010990696 -0.048732184
000280 ef c4 10 be 10 46 31 bd af e3 1c 3c 52 f0 a6 3d
       -0.14137624 -0.043279707 0.009575768 0.08151306
000290 d7 2e b9 bd d6 4a 9c 3d 93 df d6 bd a8 da 83 3d
       -0.09042137 0.07631461 -0.10491862 0.0643819
0002a0 9f 5f 8f 3d 55 52 33 3d 22 85 18 be ea 76 4a bd
       0.0700066 0.04377969 -0.14894536 -0.04942981
0002b0 f4 b1 88 bd ad ea cf 3c 62 11 37 3d 1c 6b 9f 3d
       -0.06674567 0.025380457 0.044694312 0.07784101
0002c0 a9 0a 81 3d 17 ec ed 3d 42 31 a6 3d b8 3e dd 3d
       0.063008614 0.11617296 0.08114864 0.10802978
0002d0 40 d6 9f 3d 73 27 06 bd b3 f1 d3 3c af 4f c3 bd
       0.07804537 -0.032752465 0.025872087 -0.09536683
0002e0 2c 83 89 bd 84 e5 29 be 2a a3 96 3d 06 57 06 bd
       -0.06714472 -0.1659146 0.0735534 -0.032797836
0002f0 c5 c0 d9 3d 4c 56 ba bd 39 4e 23 be 77 d1 79 bd
       0.10632471 -0.09098491 -0.15947808 -0.060990777
000300 cd 4f 1b 3e 30 c5 cb 3d 7b aa e8 bd 7c 8a 31 be
       0.1516716 0.0994972 -0.113606416 -0.17337984
000310 fc 1e ec 3d 17 72 19 3c 1d 28 17 3d 62 6e fe bd
       0.11529347 0.00936558 0.03690349 -0.124233976
000320 f1 82 57 3c 75 41 3b bd 86 a7 4a 3d 46 d5 69 3d
       0.013153777 -0.04571672 0.04947617 0.05708816
000330 51 31 89 3d 7e 10 14 3d 18 cc dc 3d 28 62 21 bd
       0.066988595 0.03614854 0.10781115 -0.03940025
000340 87 32 66 3d 22 e1 b4 bd eb e1 1d bd e1 4f 3d 3d
       0.05620053 -0.08832003 -0.03854553 0.046218757
000350 bf 9e d6 3d 8c 9e ea 3d 9c 8a be bd 44 60 8c bd
       0.10479497 0.11456022 -0.093037814 -0.06854299
000360 bc 5f ff 3d c5 75 90 bc ae ce 46 3d 9a 07 fc 3b
       0.12469432 -0.017634282 0.04853695 0.007691336
000370 bf 84 94 3d f6 8a 04 3e 3c a8 e8 bd af 46 93 3d
       0.07251882 0.12943634 -0.11360213 0.07191216
000380 ad 9a fa 3d c3 e3 da bd 96 7f 77 3b 1a 57 ec 3d
       0.12236533 -0.10687973 0.0037765256 0.11540051
000390 77 dc 2a be 6d 32 a6 bd 71 95 bd 3c 43 dd d0 3d
       -0.16685663 -0.08115087 0.023142548 0.10198452
0003a0 ba 9b d8 bd 66 f9 16 be 75 f3 0b 3e c2 04 14 be
       -0.105765775 -0.14743575 0.1366709 -0.1445494
0003b0 5f dd 81 3d 2c 63 5a bd 0d a0 3c 3c 47 04 ea bc
       0.06341051 -0.053317234 0.011512768 -0.028566493
0003c0 bf 02 57 3d 95 73 b8 bd 7b 16 46 bb b3 97 ad bb
       0.052492853 -0.090064205 -0.0030225802 -0.005297625
0003d0 4b 94 88 bb 84 41 73 bd b5 e3 26 be 1e e0 f4 bd
       -0.0041680685 -0.059388652 -0.16297801 -0.119568095
0003e0 b9 10 b2 3d 3f b0 27 bd a9 62 0c be 54 56 04 3e
       0.08694596 -0.040939566 -0.13709511 0.12923557
0003f0 d5 dc ee 3d d6 f5 f2 3c 6d da ab bb dd aa 88 bd
       0.11663214 0.02965824 -0.0052445442 -0.066732146

weight f4 [256, 512]
000000 44 da e5 bb 9b c9 a4 bd 22 bf f8 bc c4 13 1f bd
       -0.0070145447 -0.08046266 -0.030364577 -0.03883721
000010 12 ed 82 3d a8 a3 3f bd 14 59 c2 bc 7a 0f 25 bd
       0.06392874 -0.046786934 -0.023724116 -0.040297963
000020 71 23 a0 bc 26 c2 7b bd 5a 22 9d bc 1d 02 1b bd
       -0.01954815 -0.06146445 -0.01918142 -0.037843812
000030 1f 0c 95 3c e2 55 22 bc 4b 3e 55 3d 8b 2b 33 bd
       0.018194256 -0.009908171 0.05206136 -0.043742698
000040 51 ed a7 bc 3f ce 28 bc 29 41 83 3c 08 77 63 bc
       -0.020498903 -0.010303079 0.016022282 -0.01388336
000050 75 b2 91 bd b8 a2 1e bd bb 7e 18 bc 94 2d f2 bc
       -0.07114116 -0.0387294 -0.009307559 -0.029562749
000060 b1 f4 b5 bc 8f 1b 8b 3d 8b 71 c1 3b 40 69 d7 3d
       -0.022211405 0.06792366 0.005903428 0.10518122
000070 15 d6 9c 3d ef dc 91 3d 9a 78 0f bc f6 81 89 bd
       0.076580204 0.07122218 -0.008756781 -0.06714241
000080 e2 ca 51 3d 94 0a 80 3d 79 96 02 3d b5 60 21 3d
       0.051218875 0.062520176 0.031881783 0.039398868
000090 fd b4 bd 3c 13 de b2 3b 35 55 05 3d cd 17 d7 bd
       0.023157591 0.005458602 0.032551963 -0.105025865
0000a0 66 7f cd 3a fd aa 81 3b c0 97 d4 bc 96 8c 12 bb
       0.0015678226 0.003957151 -0.025951266 -0.0022361628
0000b0 95 b7 8d 3c 51 28 39 bc 4d c4 a4 3c 94 4c 68 3d
       0.017299453 -0.011301116 0.020113135 0.056713656
0000c0 72 71 31 3d 72 21 a4 3b a0 5e 42 bc b5 21 21 bd
       0.04332108 0.00500887 -0.011863381 -0.039338786
0000d0 11 08 83 bd 71 a4 1e bd 57 7e b0 bc 88 f2 aa bc
       -0.06398023 -0.038731042 -0.021544619 -0.020867601
0000e0 36 d8 3f bd 4b 24 a4 bc 7d e9 e5 3c ac 1c a8 bc
       -0.046837054 -0.020036837 0.028065437 -0.020521484
0000f0 71 6e 2b bd 17 ae d9 3b 89 cd 8a 3c a0 13 f8 bc
       -0.041853372 0.0066430676 0.01694371 -0.030282795
000100 e3 5c b1 3d 9e df 63 bb 83 ea 0f 3d b2 0e e0 3c
       0.08660295 -0.0034770737 0.035135757 0.027350757
000110 62 a8 88 3c 47 ce b3 3c 2b b6 ad bc 74 cd 8c bc
       0.016681854 0.021948947 -0.021205029 -0.017187811
000120 ce 9b 74 3c c4 70 d5 bb 67 1a 2a 3c 94 e4 29 3d
       0.014929725 -0.006513687 0.010382271 0.041477755
000130 1b 1a 6d 3d d0 0a 04 bd 50 7f ae 3b 2f c1 3f bd
       0.057886224 -0.032236874 0.0053252354 -0.046815094
000140 69 dd a2 bc 19 c4 c3 3c 0a e3 16 3d a5 99 25 bc
       -0.019880967 0.023897218 0.036837615 -0.0101074325
000150 a6 c0 44 3d ed 53 03 3d c7 90 a8 ba 00 29 af bd
       0.048035286 0.03206246 -0.001286053 -0.08552742
000160 a5 59 3c bb 5b b7 07 3b a2 ad 1f bc e3 54 09 3c
       -0.0028739956 0.0020708654 -0.009745987 0.008382055
000170 91 76 53 3d 8d 5a 03 3b 30 8f ab 3c 3f 6f 00 be
       0.051626746 0.0020042986 0.0209423 -0.12542437
000180 6f 83 58 3d bc f8 a2 bd 84 21 8b 3d e3 ea e7 ba
       0.05285972 -0.079575986 0.06793502 -0.0017693903
000190 e8 9b b0 3c a5 b5 cc bc 03 a4 d6 3b 7b d3 3c 3d
       0.021558717 -0.024988959 0.0065503134 0.04610012
0001a0 e5 36 31 bd e2 33 7a 3d 7e 59 32 3c 3e 44 f2 bc
       -0.043265242 0.061084636 0.010885594 -0.029573556
0001b0 49 fc b1 3c cf 43 8f 3c 4e d6 64 bd bd a6 65 bd
       0.021726744 0.017488388 -0.05586844 -0.056067217
0001c0 45 fb eb 3d 09 c6 51 bc 33 f1 e4 3c 34 b3 a1 bc
       0.11522535 -0.012803563 0.027947044 -0.019738771
0001d0 7b 24 bc bc 7b 05 a1 3d 4a e6 53 bd 05 0c f3 3a
       -0.022966614 0.078623734 -0.051733293 0.0018543011
0001e0 ac 64 4a 3d b1 84 85 bd 11 b1 8b bd db f1 8f 3d
       0.049412414 -0.065194495 -0.06820882 0.07028552
0001f0 58 5a 3b bd fa 2d 65 bd 59 76 07 bd b1 83 37 3d
       -0.045740455 -0.05595205 -0.03307185 0.044803325
000200 f2 43 61 bc bb 2d ab bc 8b 3f a9 bc e8 f2 81 3d
       -0.01374911 -0.02089583 -0.020660182 0.06345159
000210 1e c1 ff 3c 30 05 46 ba 80 85 7b bd b1 93 89 3c
       0.031220015 -0.00075538736 -0.061406612 0.016794058
000220 d8 eb 35 3d 7b 23 8d 3d 34 65 13 bd b3 79 0a bd
       0.04441437 0.06891533 -0.035985187 -0.033807468
000230 81 c9 3f bd d9 08 6f bd 94 5b 1d 3d 40 64 e5 bb
       -0.04682303 -0.058358047 0.038417414 -0.007000476
000240 c9 89 0d bd 2d a1 a3 3d 05 01 73 3d 48 5e ca bc
       -0.03455523 0.07989726 0.059327144 -0.02470316
000250 24 ae 6e bb 62 5a 30 3d eb 51 68 bc 61 a4 f3 3c
       -0.0036419714 0.043054946 -0.014179687 0.029741468
000260 d5 75 cc 3b c0 47 b8 bc f7 75 c2 bd 1c 79 eb 3c
       0.0062396326 -0.02249515 -0.09495156 0.028744273
000270 5d 2e 19 bd b9 dc 8e 3c 9e 58 b2 3c b2 d2 f6 3b
       -0.03739773 0.017439233 0.021770772 0.007532441
000280 0c 04 b9 3c 03 32 2c 3d cb 65 b4 bc 9a dd 7c bd
       0.022584938 0.042039882 -0.022021195 -0.061734773
000290 0f b7 17 3d 6a b7 30 3c 74 b9 21 bd cf 53 19 3d
       0.037039813 0.010785917 -0.039483503 0.03743344
0002a0 04 a1 07 bd 19 b5 e7 3c 1d 77 2a 3c 93 3a 31 bd
       -0.03311254 0.028284596 0.010404375 -0.04326875
0002b0 3a 07 7b 3b 45 07 85 3d 2c d1 02 3e 2c aa 05 bd
       0.0038303868 0.06495527 0.12775105 -0.03263299
0002c0 4a 8f 59 bd 6e 2a 11 3d 75 7c 0a 3e ea 17 b7 3b
       -0.053115167 0.035440855 0.13524039 0.0055875676
0002d0 57 2d 93 3c 03 9e f2 bc fa 26 33 bd 00 fc 44 3c
       0.017965956 -0.029616361 -0.043738343 0.012022972
0002e0 8f 8e 68 bb 29 1b 75 3d 4b 5a 1f 3c 50 84 b2 3d
       -0.0035485362 0.059840355 0.009726117 0.08716643
0002f0 73 58 1e 3c c9 9c 9e 3c 0a 17 66 bd ee 9f 4d 3d
       0.009664643 0.01936187 -0.056174316 0.05020135
000300 53 2d 52 3d 4a d9 d1 3a e0 e5 44 3d a9 61 01 3c
       0.051312756 0.0016010192 0.04807079 0.007896819
000310 74 3c c0 3c 13 f3 b3 bc 1f 22 ce 3b f7 8f 61 3b
       0.023466326 -0.021966493 0.0062906886 0.0034418085
000320 89 1a 1f 3d da f4 13 3c 25 9a e0 bc 37 77 82 bc
       0.038843665 0.009030545 -0.027417252 -0.015925987
000330 2c 56 c0 3c b2 82 a5 bd c0 c7 74 bc d8 ce ec bc
       0.02347859 -0.08081569 -0.014940202 -0.028907225
000340 26 1d 81 bb 29 a1 74 3b b8 c8 66 bb aa 59 32 3d
       -0.0039402423 0.0037327504 -0.0035214853 0.04354254
000350 24 2c b9 bc aa 5b f2 3c 97 c0 4f 3d 79 7b 14 3d
       -0.022604056 0.029584724 0.050720777 0.036250565
000360 7e 42 e5 bd 20 c5 37 bd a8 70 a4 3c f3 c1 53 bc
       -0.11194323 -0.044865727 0.02007325 -0.012924659
000370 81 0a 0d ba 43 7c b7 3c 1e d1 63 bd 75 b5 09 bc
       -0.00053802883 0.02239812 -0.05561935 -0.008405079
000380 78 fe b1 bc fe 2a fe 3c 55 e5 f6 3c 1a 30 a4 3d
       -0.021727785 0.03102636 0.03013865 0.08016987
000390 2d f9 56 3d b0 90 55 3b f1 18 ae 3a 7b 52 2c 3d
       0.052483726 0.0032587461 0.001328258 0.042070847
0003a0 83 85 7d 3a 5a f7 9d bc c6 d5 bf bc 2e 10 44 bd
       0.0009671079 -0.019282985 -0.023417365 -0.047866993
0003b0 e9 56 dc bb 1a 29 1a 3d 2e f2 81 bd 7f fd 9a 3c
       -0.0067242277 0.037636854 -0.0634502 0.018919704
0003c0 6d 55 a4 3c b4 28 af 3a 06 eb 65 bb 61 5b 42 3c
       0.020060265 0.0013363571 -0.0035082712 0.011862607
0003d0 68 e6 eb bc 46 b8 84 3d 32 44 02 3d fc 92 17 bc
       -0.02879639 0.0648046 0.031803317 -0.009251352
0003e0 42 60 2f bc 0b 0d ed 3b 70 c8 80 3c ea 29 21 3d
       -0.010704102 0.007234221 0.015720576 0.039346613
0003f0 47 0e f7 3a 71 f8 f9 3c 9a fd ac bd de f8 a9 3d
       0.001884886 0.030513974 -0.08446808 0.08299421

bias f4 [256]
000000 4a cb 21 3d 7d 4c 80 3c a4 9a 9f bc 99 75 a9 3b
       0.039500512 0.015661472 -0.019482918 0.0051714894
000010 b7 45 ba 3c b8 66 46 3c 2e c4 8b ba 4e 0d 44 3d
       0.02273832 0.012109451 -0.0010663325 0.04786425
000020 1d e5 a0 3c 7a 7e 64 bd e7 d8 89 3c 90 64 9a 3c
       0.0196405 -0.05578468 0.01682706 0.01884678
000030 d5 47 2a bc 0e cb 87 bc 40 e7 c7 3c ba bb b1 3c
       -0.010393103 -0.016576316 0.02440226 0.02169596
000040 cb f0 a6 bc 0b d1 02 bd 57 70 4a 3c 2b 06 a6 bb
       -0.02037849 -0.03193764 0.0123558855 -0.0050666532
000050 bb 8a a9 bd 27 da 39 bd e7 c4 87 3c 39 49 14 bd
       -0.08278414 -0.045374062 0.016573383 -0.036202643
000060 82 e0 c0 bb 80 65 18 3d 18 b7 ca bc e9 98 1b bc
       -0.0058861384 0.037206173 -0.024745509 -0.009496906
000070 99 f6 92 3b dc ad 24 bc 79 57 22 3d 98 fe d2 bc
       0.004484963 -0.010051217 0.0396342 -0.025756165
000080 c5 83 18 3d 97 e4 e0 bc 1a ac ac bc 51 97 ef 3c
       0.03723504 -0.02745275 -0.021078158 0.029246958
000090 5d ea ab bc 63 47 04 3d 59 b3 09 bc 06 6e 8c bc
       -0.020985777 0.032294642 -0.008404576 -0.017142307
0000a0 85 4d dc bb c6 cb 8b bd 4f ca e2 bc fd ab 66 bd
       -0.0067231082 -0.06825976 -0.027684359 -0.056316365
0000b0 e6 62 79 3c 91 4d 4d 3d ea 0f f4 3c 04 b8 76 bb
       0.015221333 0.0501228 0.029792745 -0.0037646303
0000c0 e3 60 76 3b 0e e7 0d 3d 1b 61 0b 3d 60 88 13 bd
       0.003759437 0.03464418 0.034028154 -0.03601873
0000d0 d3 b3 21 bd 44 c1 2e bd 6d 4a da 3b 25 f5 72 bc
       -0.039478134 -0.04266478 0.0066617043 -0.014828955
0000e0 17 63 b3 bd 77 57 0a bd 5a 2b 5c bd 69 5a 62 bd
       -0.08759134 -0.03377482 -0.05375228 -0.055262003
0000f0 97 21 79 bc b5 bb d3 3c 5a 5a a4 3c 52 7c 6e 3c
       -0.015205762 0.025846342 0.020062614 0.014556007
000100 06 f3 3b bd c9 60 69 bd 4f 14 70 bd 95 75 10 bd
       -0.045886062 -0.056977067 -0.058613118 -0.035268385
000110 f4 21 90 3c 39 b5 29 3d 47 d0 95 3c c4 9c 7c 3d
       0.017594315 0.041432593 0.018287791 0.06167294
000120 4d ac f7 3c 27 c0 e9 bc 2c 3b 71 bc d4 61 c7 3b
       0.030233527 -0.028534008 -0.01472358 0.00608466
000130 a8 d3 51 3a c5 0f fe bc 55 f6 0f bd 11 74 45 bd
       0.00080042565 -0.031013379 -0.03514703 -0.048206393
000140 61 e1 95 bc 2f fa 85 3c 05 93 24 bd 4a bf 08 3d
       -0.018295946 0.016354648 -0.04017927 0.033385552
000150 cb d6 41 bb 35 3d 17 bc e4 48 eb 3c 33 b3 e1 3c
       -0.002957749 -0.0092309015 0.02872128 0.02755127
000160 ff 02 11 bd b5 ec 1c 3d 8a b7 d3 bc 27 99 7a 3d
       -0.035403248 0.03831168 -0.025844354 0.061181214
000170 1e 4e 80 bc 57 6c 0a 3d da e2 53 3c c2 78 fd 3c
       -0.01566225 0.033794727 0.012932504 0.03094137
000180 df 1b 6b bb a9 61 95 3b 34 99 77 3b 5d d8 ed 3a
       -0.0035874767 0.004558761 0.0037780525 0.0018146146
000190 2d 72 13 bd 98 1e 3e 3b 9e eb 8a 3c 61 bc 6c 3c
       -0.03599756 0.0029009935 0.016958054 0.01444921
0001a0 36 17 78 ba cf 71 af bb 79 f9 c1 3b cf be 9d bc
       -0.0009463908 -0.005354143 0.005919632 -0.019256024
0001b0 d4 2f f7 3a 5e 24 57 3c 1d d2 de bc cf dc e4 3c
       0.0018858858 0.013131229 -0.0271998 0.027937321
0001c0 1d f4 bb 3b 85 21 20 3c a6 d0 ef 3c 33 05 c7 bc
       0.0057358877 0.009773617 0.029274296 -0.024294471
0001d0 e4 7a a6 bc ab 14 df bb 5e ff 5b bd c2 95 19 bc
       -0.02032227 -0.0068078837 -0.053710334 -0.009374084
0001e0 44 7d 01 bd 7a 12 b8 3c e9 99 42 3d a7 a7 e6 3b
       -0.031613603 0.022469748 0.04751006 0.0070390287
0001f0 8f cd 82 3c 7f fa 48 3d e1 3c c4 3b e2 50 bf 3c
       0.015967159 0.049067017 0.0059887026 0.023353998
000200 d7 6c 0e bd 33 7c 6a 3c 8d 9b a2 3c ae 7a 21 bd
       -0.034771767 0.014311838 0.019849563 -0.039423637
000210 94 ce 63 3c f9 c2 1d bd ab 38 da 3c 20 7d 4c 3c
       0.0139042325 -0.03851602 0.02663835 0.012481004
000220 84 e7 53 bc 09 f6 b3 bc f2 92 3f bd bd 31 53 bd
       -0.012933616 -0.021967905 -0.046770997 -0.051561106
000230 37 15 c0 bb 21 91 29 bd 1a ff 03 bd 3e 3c c6 3b
       -0.005861904 -0.04139817 -0.032225706 0.006049662
000240 77 fd 37 bd 66 a6 ee 3c e1 4b 01 bd 03 40 d9 3c
       -0.044919457 0.02913208 -0.031566504 0.026519781
000250 82 36 22 bd 17 9b 14 bd a9 aa 4f bd ab ae 00 3d
       -0.039602764 -0.036280718 -0.050699864 0.031416576
000260 cc 46 f6 bc f7 54 ea 3b 26 db f9 3c 1d 5b 20 bb
       -0.030063055 0.007151242 0.030500006 -0.002446837
000270 6a 6b 27 bb 2c 78 03 bd 5c 5a f1 bc dc 99 79 3c
       -0.0025546202 -0.032097027 -0.029462032 0.015234437
000280 96 55 95 3c b1 c2 0c bd db 9d 4e bd 58 25 2a bd
       0.018229287 -0.03436536 -0.05044351 -0.04153952
000290 52 5d 8a 3c 16 9b c7 bc 02 c1 bf bb e5 84 23 bd
       0.016890202 -0.024365943 -0.0058518657 -0.03992166
0002a0 f3 ca f4 bc 1a cb 6c bc 27 fa 12 3d 9e 52 42 3c
       -0.02988193 -0.01445272 0.035883095 0.011860518
0002b0 cc c6 f4 bc 84 5d 3a bd c0 e9 2f bd fc 4b cb 3c
       -0.02987995 -0.04549934 -0.04294753 0.024816506
0002c0 3f 7e f1 bc b3 b5 3d bd f3 ac 35 3c 3d 31 ea bc
       -0.029479144 -0.04631586 0.011088598 -0.028587932
0002d0 3a 5c 2a 3c 8c de 4c bd e9 c3 30 3d e8 73 ee 3c
       0.010397965 -0.050016925 0.043155584 0.029108003
0002e0 05 97 f0 bb 6b 71 ab 3c 36 b4 ee bc aa 9b 8a bd
       -0.0073422217 0.020928105 -0.029138666 -0.06767972
0002f0 ed 11 32 3c c2 3e a6 3b 1b 69 9a 3b 1b 79 13 bc
       0.010868532 0.0050733993 0.0047122366 -0.009001042
000300 4c 0f 18 bb 05 1c 0b 3b c9 70 50 b9 bd 33 2f bc
       -0.0023202477 0.0021226418 -0.00019878442 -0.010693488
000310 b3 e5 bb bc 69 d3 f7 3c 23 70 93 bc 24 09 1c bd
       -0.022936678 0.030252175 -0.017997807 -0.038094655
000320 4e df 8e 3c 89 ef 8b 3b 56 0a 32 bd 50 9c f7 3c
       0.017440464 0.004270498 -0.04346689 0.030225903
000330 28 69 ff bc 90 e1 71 3c a4 3e 2b bd 6b 85 e1 bc
       -0.031178072 0.014763251 -0.041807786 -0.027529439
000340 1f a8 2a 3d 48 93 a4 bb 69 4f 3d bd 81 2d d7 bc
       0.04166424 -0.00502244 -0.04621831 -0.026266815
000350 f6 52 08 3d e6 3d cf 3c 4d 9f f1 bc 57 50 5f 3c
       0.033282243 0.02529807 -0.029494906 0.013629994
000360 ea 0c 4e bd 41 73 ff 3b 80 79 db bc e6 59 81 bb
       -0.050305285 0.0077957218 -0.026791334 -0.0039474843
000370 d5 c2 3f bc 75 ad 25 bc ae 92 5a bd 07 16 be 3c
       -0.011704166 -0.010112156 -0.05336254 0.023203863
000380 c1 66 15 bd d7 04 32 bd 28 e0 9f bc 50 dc 6c bd
       -0.036474947 -0.043461647 -0.019516066 -0.057827294
000390 4b d6 51 bc ee 1f 95 3c 7b 2b cc bc 1a 9e 04 bd
       -0.012807439 0.018203702 -0.024923077 -0.03237734
0003a0 27 f1 b3 bc 8f 6e 9b bd 7e 96 5f bc 0d 86 21 3d
       -0.021965576 -0.07589447 -0.01364672 0.03943448
0003b0 39 e1 0f bd bb 82 8b 3c ed 54 59 bd e2 79 49 bd
       -0.0351269 0.01703011 -0.053059507 -0.049188502
0003c0 90 0f 07 bd d3 51 60 bb 4a 90 26 bd c4 f1 39 bd
       -0.032973826 -0.0034228459 -0.04066495 -0.04539658
0003d0 ff 1f ef bc f8 75 1d bd 1b f9 db 3b e3 d6 9a bc
       -0.029190062 -0.038442582 0.0067130453 -0.018901294
0003e0 e7 e7 12 bd 79 c1 26 3d 1c 6b f6 bc 68 db 5f 3c
       -0.03586569 0.040711854 -0.03008037 0.01366315
0003f0 a5 38 45 bd d3 0e 07 bd 2f bc 04 bd 21 3d c1 bc
       -0.048149724 -0.03297312 -0.03240603 -0.023588719

weight f4 [128, 256]
000000 99 4c 4a 3c a4 ef 37 3d 54 ef f1 bb f9 12 54 bb
       0.012347364 0.044906273 -0.0073832665 -0.0032359941
000010 bb 3a 40 3c 54 d5 7e 3d de f6 fe 3c d9 e2 50 3d
       0.011732752 0.062215164 0.031123575 0.05099759
000020 fc c7 e2 bc b1 e4 46 bd 8d f2 20 3d 2b 12 59 3d
       -0.02768325 -0.04855794 0.039293814 0.052995842
000030 10 1c bc bd 08 b3 a0 bb 82 90 8b 3d 60 12 ee 3d
       -0.0918504 -0.0049041547 0.06814672 0.116245985
000040 7b cb e2 bc 34 a1 16 3d 03 f9 89 bb 41 d2 9c 3c
       -0.027684918 0.03677483 -0.0042105927 0.019143226
000050 18 29 83 bc 4b 1e 68 bd fa be 26 bd fd 13 9e bc
       -0.016010806 -0.056669515 -0.040709473 -0.01929664
000060 dd 42 44 bd b1 29 83 3d 6c 93 97 bd 39 eb 13 3d
       -0.04791533 0.064044364 -0.07401165 0.036112998
000070 15 74 8c 3b 88 8a 2a bd d8 7c 30 3d a3 ec 65 bd
       0.004286299 -0.04163602 0.04308781 -0.056133877
000080 b5 31 8c 3c ce 45 90 3d 4a 5e 6d bd ed f9 3f 3d
       0.017113546 0.07044564 -0.05795125 0.046869207
000090 62 69 f8 3c ab 82 37 bc f2 c7 1a b8 7f 36 5a 3d
       0.030323688 -0.011200587 -3.6902675e-05 0.053274628
0000a0 25 6a 5a 3d 9c 5f 72 3d 86 cd af bc 02 c0 2b bd
       0.053323884 0.05917321 -0.021460306 -0.04193116
0000b0 74 87 d9 bb c4 a1 bc bc 35 46 9b bd 6f 32 01 bc
       -0.0066384617 -0.023026355 -0.0758175 -0.007885559
0000c0 8d b1 79 bc 97 1c 71 3d 4c 7a 7b 3d bf 22 26 bd
       -0.015240085 0.058865156 0.06139593 -0.04056048
0000d0 31 44 52 3d 5d 14 1a 3d 47 2e ea 3c 20 09 0c 3e
       0.051334564 0.037617076 0.02858652 0.13675356
0000e0 5c 52 fb 3a ad 89 14 3d 6f 36 1a bd d3 af 4f 3d
       0.0019174325 0.03626411 -0.03764957 0.05070479
0000f0 6c 5d b3 bc 5f 05 91 3d d1 dc 14 3d 52 93 43 3d
       -0.021895133 0.070811026 0.0363434 0.047747917
000100 60 88 6e bd 4f be 94 3c 84 a7 fa bc fa 1e 62 bd
       -0.058235526 0.018157152 -0.030597456 -0.055205323
000110 67 e9 2f 3d 40 34 5a bd 42 1e 3d bc 2d 20 94 bc
       0.0429472 -0.053272486 -0.011542859 -0.018081749
000120 3c 63 80 3d 31 76 ab bc 7c 20 85 3c d0 f4 57 3d
       0.062689275 -0.020930381 0.016250841 0.052723706
000130 a1 e7 68 3d bb c9 ad 3c 7c 01 1c 3d 81 69 49 3b
       0.056861524 0.021214357 0.038087353 0.0030733051
000140 26 df 12 3d 7d 01 be 3c e3 c6 41 3d d8 3c 1f bd
       0.035857342 0.023194069 0.047308814 -0.038876384
000150 ba 9c 9d 3c d4 41 8a bd 7d e9 0b bd db 6a bb 3d
       0.019239772 -0.06750837 -0.03415822 0.091512404
000160 3a a7 89 3c d2 cc 8c 3c 11 a8 f0 3c 73 61 a2 3b
       0.016803373 0.01718751 0.029377015 0.0049554645
000170 08 34 96 bc 27 c4 9d 3b c3 3b f0 bb a4 8b 0a 3d
       -0.018335357 0.004814643 -0.007331343 0.033824578
000180 36 ae 86 bd 3b 3e 77 3d 0f f8 a5 3c 2c 03 b1 bd
       -0.06576197 0.060362082 0.020259885 -0.08643183
000190 c3 1f b3 3d 78 d9 35 bd dd 61 59 bd ee a3 08 bc
       0.087462924 -0.044396847 -0.053071845 -0.008339865
0001a0 88 77 95 3c fe 55 30 bc c2 0c 3d 3c ca 98 a2 3c
       0.018245474 -0.01076269 0.011538686 0.019848246
0001b0 f9 00 97 bd ed 84 b1 bc fa 57 49 3c da 79 53 3d
       -0.073732324 -0.02166983 0.012289042 0.05162988
0001c0 d8 21 13 bd 40 90 06 bd ea c0 3f bd 99 a0 a0 3c
       -0.035920948 -0.03285241 -0.046814837 0.019607829
0001d0 de 51 03 3d 47 7f b9 3c 58 b5 52 3d de a2 3d bd
       0.032060497 0.022643698 0.051442474 -0.0462979
0001e0 dd 3e ab 3c dc 82 e0 bc 39 e2 ee 3c de 85 01 bd
       0.020903999 -0.027406149 0.029160606 -0.031621806
0001f0 5b 41 c1 bc 7f 09 46 bd f3 34 3d bd a5 5f 6f 3d
       -0.023590734 -0.0483489 -0.046193074 0.058440823
000200 51 d6 a0 3c 91 1d 99 bb 1f 66 47 3c 34 92 9c 3c
       0.019633444 -0.004672714 0.012170344 0.019112684
000210 62 fa a8 3d b6 f8 2a 3b 28 3c db bc 19 6e 48 3d
       0.08250882 0.0026088185 -0.026762083 0.048933122
000220 17 7d 80 bd 99 a9 b2 bc a7 7a 19 3d dc 94 9d bb
       -0.06273859 -0.021809386 0.037470486 -0.004809005
000230 30 6e 98 bd 69 eb 99 bd 56 d7 75 bd 8e 9f 3e 3c
       -0.074428916 -0.07515604 -0.060019813 0.0116347205
000240 3c 73 5b bc 37 99 bb bd 4d ed 63 3c 8b f1 00 bd
       -0.013394173 -0.09160083 0.013911557 -0.031480353
000250 ea 80 90 bc 5a f8 95 3a 3c c4 64 3d 66 5d 67 ba
       -0.017639596 0.0011441812 0.055851206 -0.0008825868
000260 58 25 d1 3a e9 e8 11 bd ed fe c9 bc 27 62 cf 3d
       0.0015956564 -0.03562251 -0.02465769 0.10126143
000270 db 01 8c bd 3b 76 a0 3c f1 c2 e1 bc 37 c4 d2 bc
       -0.068362914 0.019587627 -0.027558776 -0.025728328
000280 05 0e 50 3d 32 a3 7a bd 25 0f d7 3c e3 8d 8f 3d
       0.05079462 -0.06119079 0.026252339 0.070094846
000290 48 49 4f 3d 8a ff 2f 3d 94 7f a4 bc e7 0a a9 bc
       0.050606996 0.04296831 -0.020080365 -0.020635081
0002a0 36 2e 11 3d 2e 7e 25 bd 2d 9e 86 3d 54 62 2b bd
       0.03544446 -0.040403537 0.065731384 -0.04184182
0002b0 e2 14 0c 3d 1f 14 7f 3d 37 a1 cc bc 54 c1 79 bc
       0.034199603 0.06227505 -0.024979217 -0.015243847
0002c0 7d b2 3d 3d 1f 11 23 3d 09 84 85 bc 44 10 9c 3d
       0.046312798 0.03981125 -0.01629831 0.0762029
0002d0 73 34 b8 bb a3 d5 d1 bd dd 49 ff bc 18 4b 94 bd
       -0.005621487 -0.10245826 -0.03116315 -0.072408855
0002e0 cf ff 4a bd c7 50 c4 3b 68 b9 6d bb da 05 6d bd
       -0.049560364 0.0059910747 -0.003627384 -0.05786691
0002f0 c9 ba 82 3d 51 cf 51 bd 09 71 25 3d a5 e0 af bd
       0.06383283 -0.051223103 0.040391 -0.085877694
000300 27 6c 9a 3c 5e c8 0c bd 31 99 56 bd 07 00 eb bd
       0.0188504 -0.034370773 -0.05239219 -0.114746146
000310 be 15 d9 bc 0c 8b 8d bc 58 01 44 3b 80 d0 99 bc
       -0.026499625 -0.017278217 0.0029908027 -0.018776178
000320 3d e5 ba 3c b4 d8 39 3d a3 67 9c bd 7c 87 eb bc
       0.022814387 0.04537268 -0.07636955 -0.028751127
000330 79 8a 09 bb e4 ab 26 3d d1 45 32 bc c4 8f d3 3c
       -0.0020987077 0.04069127 -0.010880903 0.025825389
000340 dd 46 c3 bc 16 ff da 3c 83 b3 4f 3c cc ad aa 3c
       -0.023837501 0.026732963 0.012677076 0.020834826
000350 06 ec 73 3d ba 64 88 3d 91 4d 8c bb 0c b9 70 3d
       0.05955126 0.06659837 -0.0042817076 0.058770224
000360 33 e6 30 3d c9 d0 b6 3a 41 83 28 3d c3 60 91 bd
       0.043188285 0.0013947721 0.0411408 -0.07098534
000370 73 8d 64 bd a0 b5 54 3d 0c dd dd 3c 3e 66 98 3c
       -0.05579896 0.051931024 0.027082942 0.01860344
000380 3c 15 f1 3c ba 50 89 ba 11 74 c4 bd ca 41 72 3d
       0.02942907 -0.0010476329 -0.095924504 0.059144773
000390 ce 3f a1 ba 40 ec 9d 3c d8 b6 1e 3d 2c 21 84 bb
       -0.001230234 0.019277692 0.038748592 -0.0040322747
0003a0 10 26 bf bc bc 0b 55 3d a6 dd 05 bd e4 f2 8e bd
       -0.02333358 0.052013144 -0.032682084 -0.069799215
0003b0 45 08 3e 3d be 73 a0 3d 61 a8 60 3d 64 29 4e 3d
       0.046394605 0.07834576 0.05484808 0.050332442
0003c0 24 8b 4f 3d 8a 58 dc bc 2f bb 05 bd c9 65 07 bc
       0.050669804 -0.026897687 -0.032649215 -0.008264014
0003d0 77 43 f5 3c a2 ef f9 bc f3 d4 94 bc 55 a9 dc 3c
       0.029939396 -0.030509774 -0.018167948 0.026936213
0003e0 b0 24 dc 3c 6f 13 86 bb 79 0c 01 3d 64 b8 e5 bb
       0.026872963 -0.004091672 0.031506035 -0.0070105065
0003f0 c4 52 a7 bc f8 c6 80 bd b0 e4 5b bd 87 ec 4b 3d
       -0.020425208 -0.0628795 -0.05368489 0.049786117

bias f4 [128]
000000 2f 95 96 bd 4f 44 f3 bc 2c 77 47 3c f6 b2 e8 3c
       -0.07352673 -0.029695658 0.012174409 0.028405648
000010 41 51 f4 bc 9a 63 d2 bb 7c f5 5a bd 4f b5 2f 3c
       -0.029823901 -0.006420565 -0.05345677 0.01072438
000020 69 ca 83 bc e2 7a 1c bd cb 29 64 3d 31 2f 08 3d
       -0.016087728 -0.038203128 0.05570392 0.03324813
000030 e1 0e 15 bd 54 1b 7c bb 5c 5f 2e bd 01 a4 3d bd
       -0.036391143 -0.0038468437 -0.04257141 -0.046298984
000040 59 be 1e 3c ac 29 af bc 36 bc c1 bc e0 45 91 bd
       0.009688937 -0.021382175 -0.023649316 -0.07093406
000050 8b c1 30 3b 2a 88 6e 3c 16 3a 25 bd a9 43 c4 3c
       0.002697083 0.014558831 -0.0403386 0.023958044
000060 8f 10 8e bc 77 14 83 bd be ac 64 3d 79 17 35 3d
       -0.01734188 -0.06400388 0.055828802 0.04421184
000070 c7 fb c5 bc 54 55 23 3d 2f 6e bf bd 3c 3c 3f bd
       -0.024167908 0.039876297 -0.09347188 -0.046688303
000080 4c 15 5a 3c 94 1f a2 ba 23 20 1a bd 8a 5b 8e 3c
       0.013310742 -0.001236903 -0.037628304 0.017377634
000090 7b 68 fa 3b f2 da 98 bd 62 7b 43 bd 44 64 da bc
       0.0076418496 -0.074636355 -0.04772509 -0.026659139
0000a0 ab 92 ac 3a 06 27 a7 3d 8c 0c 05 3c a1 b9 16 bd
       0.0013166269 0.0816174 0.008120667 -0.036798123
0000b0 11 d7 49 bc 8a fd 01 3d 96 e8 b4 3c a9 5f b5 bb
       -0.012319342 0.031735934 0.022083562 -0.005535085
0000c0 5d 7f 96 bd 68 13 9c bd 3c 23 3f 3d 50 3a 39 3d
       -0.07348511 -0.07620889 0.04666446 0.045221627
0000d0 48 5f 32 3d f6 81 58 bd 45 c9 93 bd 3a fa 75 bd
       0.0435479 -0.052858315 -0.072161235 -0.060053088
0000e0 94 b3 93 ba 32 14 29 3c 49 9d ce bc e2 b8 ee bb
       -0.0011268728 0.010319756 -0.025221484 -0.0072852233
0000f0 5c b2 34 3d 61 73 79 3d f3 f7 d2 bc c6 51 25 3a
       0.04411541 0.06090105 -0.025752997 0.00063064357
000100 22 ed b2 bd 18 a2 19 3c f1 11 1d 3b 01 67 22 bd
       -0.08736636 0.009377025 0.0023966993 -0.039649013
000110 47 90 9b 3d bd cc e9 3b 77 ed 47 3c 00 7b 0b bc
       0.07595878 0.0071350024 0.012202612 -0.008513212
000120 fc 70 7b 3c 9a b5 05 bd 06 59 c3 bc e6 19 69 3d
       0.015346762 -0.032643892 -0.02384616 0.056909464
000130 0c de 85 3d aa ba 5f bd 98 97 89 bb 69 38 94 bc
       0.06536493 -0.054621376 -0.0041989796 -0.018093305
000140 f7 96 90 bd 2c 4c 38 3d 76 cb e0 bd e9 5c 38 3d
       -0.07060044 0.04499452 -0.10976307 0.04501048
000150 17 b9 c3 3c c3 ab 98 bd d8 fa 51 bd fc 82 09 3d
       0.023891969 -0.07454636 -0.051264614 0.033572182
000160 b6 d1 46 3d 51 b0 b1 3b 27 73 31 3d 9f 3d 2e 3d
       0.04853984 0.00542263 0.04332271 0.042539235
000170 aa d1 60 bd 2d 35 1b bd 52 18 4f bd a1 63 02 bb
       -0.05488745 -0.03789251 -0.050560303 -0.001989581
000180 8f aa c8 3c de 85 0e 3d ff fb 38 bd 19 c0 fe bc
       0.024495391 0.034795634 -0.045162197 -0.031097459
000190 98 82 9c 3d 23 45 0c 3d 4e da 7f 3c c7 c0 87 3d
       0.07642096 0.03424562 0.015616013 0.06628566
0001a0 d7 6e f0 3c 52 51 ac bd 41 d5 a0 bb 7e fe 3a 3d
       0.029349728 -0.08413948 -0.0049082343 0.04565286
0001b0 e2 da 03 3d e3 64 ff bc c8 95 2d ba 7b 46 58 bd
       0.032191165 -0.031176036 -0.00066217454 -0.05280159
0001c0 58 9e 7d bd 14 d9 a4 3d 4f 5a b3 3c 73 e1 55 bd
       -0.061918586 0.08049217 0.021893648 -0.05221696
0001d0 3b 1e 74 bd 74 dc 2b 3b f0 7c dc bc 4f a5 e2 3c
       -0.059599143 0.002622393 -0.026915044 0.027666716
0001e0 60 d3 e4 3b 21 48 96 bd 51 37 8d 3d 01 e7 30 bd
       0.0069832057 -0.07337976 0.068953164 -0.043189052
0001f0 79 7f bf bc b4 77 c4 bc 59 2d 9d 3c 45 bf 1a 3d
       -0.023376213 -0.02398286 0.019186663 0.037780065

weight f4 [12, 128]
000000 48 21 b4 bd 3f 0d 2e 3d d1 65 91 3d 20 24 c8 3d
       -0.087954104 0.0424931 0.07099498 0.09772515
000010 c6 12 bf bc e3 77 3c 3d 8c c3 11 bd 75 fd 09 bd
       -0.023324382 0.04601277 -0.03558688 -0.03368898
000020 03 96 1e bc 23 03 31 3c c0 18 c2 bb 99 a8 73 3d
       -0.00967932 0.0108039705 -0.0059233606 0.05948696
000030 7a 23 14 3d 7b f5 dc 3c d5 42 8a bd 51 fc b3 3c
       0.036166646 0.026972523 -0.067510284 0.0219709
000040 e2 6f af 3d 82 75 f9 bb 49 5a d8 3c 12 f7 44 3d
       0.08566262 -0.007612885 0.026410239 0.048087187
000050 4c 84 bf 3c cd 2e 5b 3d b6 aa d8 3d 24 bc c2 3a
       0.023378514 0.05351143 0.105794355 0.0014857096
000060 8b 96 0c bd 54 ff 9a bd 1f 24 83 3d e7 3c 33 3d
       -0.034323256 -0.07568231 0.06403374 0.043759253
000070 3b 70 76 bd bc 48 74 bc aa e3 9b 3b 36 10 96 bd
       -0.060165625 -0.014909919 0.0047573643 -0.07327311
000080 cd 18 59 3d c2 d5 ae bb 67 97 65 3c 1d 86 28 3b
       0.053002167 -0.0053355405 0.014013148 0.0025714703
000090 62 ea 77 bc ca a7 bd bd b0 68 eb bc 2a e1 95 3d
       -0.015131565 -0.09260519 -0.028736442 0.07318337
0000a0 a9 57 5e 3c b2 02 ff 3d 42 25 a9 bb 35 d6 81 bc
       0.0135707045 0.12451686 -0.005161912 -0.015849212
0000b0 76 b8 0d 3d 5b 62 91 3d 54 66 b0 3d f2 54 5b bc
       0.034599744 0.07098838 0.086132675 -0.013386952
0000c0 7e 4d 70 3d 7e 65 d9 bb 13 c2 19 3d 33 de 7e 3c
       0.058667652 -0.0066344133 0.0375386 0.015555906
0000d0 c8 08 16 3d 10 46 40 3c fd d1 9f bb e4 46 6d bd
       0.03662947 0.011735454 -0.0048773275 -0.057928935
0000e0 2a 97 7b 3d 42 7b 98 3d 20 1f c2 3c 02 4e 4a 3d
       0.06142346 0.074453846 0.023696482 0.0493908
0000f0 84 c6 c9 3b 51 c1 61 bd 4a df 54 37 a2 94 c0 bc
       0.006157698 -0.055116 1.2688173e-05 -0.023508374
000100 d4 4c e0 3b 88 12 1d 3c 3a 21 9b 3c 35 b0 b4 ba
       0.006845096 0.009586938 0.018936742 -0.0013785424
000110 67 dc a5 3d 4f cc c5 bc 29 3e 32 3d 27 f4 9d 3d
       0.08098679 -0.024145273 0.04351631 0.07712584
000120 68 dd 3a 3b 86 44 63 3d 7f bd c7 3d a8 94 21 3d
       0.0028513316 0.05548527 0.097529404 0.03944841
000130 b9 23 78 bd 43 e1 7c 3c ff 1a 84 3d d8 35 91 bd
       -0.060580943 0.015434566 0.064504616 -0.07090348
000140 1a 9f 26 bd 99 e6 80 bc 7f c7 12 bc 16 b0 0e bd
       -0.040679075 -0.015734958 -0.008958696 -0.034835897
000150 38 c8 93 bd 59 b7 9c bc 65 96 a8 3c bc 73 82 bd
       -0.07215923 -0.019130396 0.020579526 -0.06369731
000160 b4 5d 4a bd d8 a6 1d 3d da aa fe 3c 50 1c cc 3d
       -0.04940577 0.038489193 0.031087328 0.09966338
000170 0a 5c 55 3d 90 09 a4 bd 89 c3 57 bd cc a6 60 bd
       0.05208973 -0.080096364 -0.05267671 -0.05484657
000180 cb 10 9c bc 65 af 2f bb fe 49 47 bc 39 3a cb bc
       -0.019050976 -0.0026807424 -0.012163637 -0.024808036
000190 49 41 58 bd 09 77 4b bd 39 db 46 3d 2d a7 34 3d
       -0.052796636 -0.049674068 0.04854891 0.044104744
0001a0 39 bf cf 3c e8 1d 20 3d 83 86 54 bd fe 07 9c 3d
       0.025359737 0.03909102 -0.051886093 0.07618712
0001b0 08 7e b5 bd fd 85 52 bb c5 2d 68 bc 3f 06 64 3c
       -0.08861929 -0.003212332 -0.014171069 0.013917505
0001c0 27 68 a0 bd 57 df 1b bd 16 cd 3f bd 7b 01 fd 3b
       -0.078323655 -0.03805479 -0.046826445 0.0077211238
0001d0 92 72 6f bd 3d b2 02 be fd 94 e9 bd 6f 13 10 3c
       -0.058458872 -0.12763305 -0.114053704 0.008793696
0001e0 0d a5 09 bd ac 2d 8c bc eb 5b 40 3d d9 42 06 3d
       -0.03360467 -0.017111622 0.04696266 0.032778595
0001f0 d9 d9 be 38 59 6d 1c be 9a 3e f6 bc 23 a4 71 3b
       9.100483e-05 -0.15276088 -0.030059148 0.0036871515
000200 9d db c7 3d ba 7c bc bd e3 f3 b9 3d 2c cc 71 be
       0.09758685 -0.09203477 0.09079721 -0.23613042
000210 ee b6 a0 3d 8f 8a 06 bc 9a 3c 45 3d 19 dd 78 bc
       0.07847391 -0.008211746 0.048153497 -0.015189433
000220 ce b7 98 3d b2 76 c2 bd d0 d9 a4 bd 61 e4 c1 3d
       0.07456933 -0.094952956 -0.08049357 0.09467388
000230 da 5c c8 3d f4 5f 0b 3e 33 c8 55 3d 95 a0 01 be
       0.09783335 0.13610822 0.052192878 -0.12658913
000240 fa c6 0d 3d e0 21 b1 3d 46 7f dc bb 50 88 2c 3d
       0.034613587 0.08649039 -0.0067290394 0.042122185
000250 f5 f3 d1 3c 69 71 ce bd 22 28 01 3d 21 be 86 3c
       0.025629023 -0.10080225 0.031532414 0.016448082
000260 e8 54 d7 bc 54 78 77 3d d1 a0 31 bd 36 1d 17 bb
       -0.026285604 0.06041749 -0.043366257 -0.0023058183
000270 b4 30 b3 3c fc d4 b2 3d b0 dd 6d 3b 3a 91 e3 3c
       0.02187381 0.0873203 0.0036295466 0.02777921
000280 de bc 8e bd 67 2d 83 3d 80 03 9a 3c ac 18 cf bd
       -0.06969617 0.06405144 0.018800497 -0.10112128
000290 66 a8 51 bd 6e 0e 4e 3b 03 b4 75 bc 9d ca 47 bb
       -0.051185988 0.0031441706 -0.014996531 -0.0030485757
0002a0 27 18 c0 bd 6f 81 3c bb c7 3f 8d bc af e6 d4 bc
       -0.09379607 -0.0028763672 -0.017242325 -0.025988905
0002b0 b2 e4 87 3c f8 58 99 ba c7 0f 42 3d ae f6 91 3d
       0.016588543 -0.0011699488 0.047378328 0.071271285
0002c0 ff ea 84 3d ee 09 17 3d ea 15 62 3d fe 92 11 3d
       0.064901344 0.036874704 0.05519668 0.035540573
0002d0 ff 9c 98 bd a0 13 2a 3d 05 98 e7 bc ec 30 bd 3c
       -0.0745182 0.041522622 -0.02827073 0.023094617
0002e0 61 7b 3d bd 66 9a a1 bd 72 ca 80 bd 13 3c 30 be
       -0.04626024 -0.07890777 -0.062886134 -0.17210416
0002f0 0c 2b 33 bd e7 8b 81 bd c2 6d 14 3d dc 29 d0 bc
       -0.043742225 -0.063255124 0.036237486 -0.025410585
000300 3f 6f 66 3b 1a d7 34 3d 4e dd 80 bd 88 13 50 3d
       0.0035161523 0.04415045 -0.062922105 0.050799876
000310 7f 2c 8e 3d a5 08 93 bc 5b 05 a5 bc 5f 0a 7b 3d
       0.06942081 -0.017948458 -0.020144155 0.061289188
000320 cb 6d dd bd 3f 41 99 3d 21 67 bd bc a1 d9 40 3d
       -0.10811957 0.07483148 -0.023120465 0.047082547
000330 66 25 49 3c ae 4d bd bd 2d f4 8f 3d e1 e4 96 3d
       0.012276983 -0.09243332 0.07028995 0.07367874
000340 22 8b 87 3d 96 f3 9a 3d 83 06 bd 3d 9d ac 6e 3d
       0.06618334 0.075659916 0.09229758 0.058270086
000350 f7 dc ae 3c e4 cb 9f bd 8f 69 6e 3d 0e a1 df bd
       0.021345599 -0.07802561 0.058206137 -0.109193906
000360 6d 9f 08 bd b2 d4 6f 3c be e0 e4 3d 9a d5 5e 3c
       -0.033355165 0.014638113 0.11175679 0.013600731
000370 fc 7b e4 3d f4 b1 94 3d 30 d0 06 bd 99 bd 6b 3d
       0.11156461 0.07260504 -0.032913387 0.05755386
000380 bc 7d 05 bd 22 f2 59 ba 8a 97 59 bd 8d 3a 04 bd
       -0.032590613 -0.00083139737 -0.053123035 -0.0322824
000390 4d 43 25 bd 7c 9c e6 3b b3 68 33 3d 06 fa e1 bd
       -0.040347386 0.0070376974 0.04380102 -0.11034016
0003a0 2f 3c bb bd b9 ec b0 bd 1f bb f6 bc 07 ae f7 bc
       -0.091423385 -0.08638901 -0.030118523 -0.03023435
0003b0 ef ca e7 bc 4a 92 65 bd 3a ec de 3c be 99 93 bc
       -0.028295008 -0.056047715 0.027212251 -0.018017646
0003c0 ed 87 af bd 9b 9f c7 bd e7 2c e7 3d 5c 67 8f bd
       -0.08570848 -0.09747239 0.11287861 -0.07002136
0003d0 a5 11 be bd f5 b8 86 38 44 49 64 bd ea 7f 74 3d
       -0.09280709 6.424069e-05 -0.055733934 0.0596923
0003e0 2a e9 f2 bd c4 9a 42 bd 08 5d a3 bc 48 97 45 bd
       -0.11860879 -0.047510877 -0.019941822 -0.048239976
0003f0 20 38 2b 3d e4 fa ae bc c8 98 d0 bb a3 b8 33 3d
       0.04180157 -0.021359868 -0.006365869 0.043877255

bias f4 [12]
000000 28 c6 57 3d b9 8c 90 bd c3 ae 5f 3d 2e 6e 58 3d
       0.05267921 -0.07058091 0.054610025 0.05283945
000010 8f c3 33 3d 5a 69 24 3c 23 19 b6 3d 3c 68 46 bd
       0.04388767 0.010034883 0.08891513 -0.04843925
000020 01 24 23 3e 79 fb c3 bd a6 aa 63 3d 07 20 07 3e
       0.15931703 -0.09569449 0.055582665 0.13195811
