deploy/exported_policy/go1/policy_45_discrete.pt (torch, 768520 bytes, 8 tensors)

weight f4 [512, 45]
000000 bf 0a 25 be b1 09 51 be 5e b3 af 3d 3e 77 e9 bc
       -0.1611738 -0.20413853 0.085791335 -0.028499242
000010 6d a0 c4 3d 0f bc 50 3c 7e 8a d1 bd 5d 25 14 be
       0.09600911 0.012740149 -0.102314934 -0.14467378
000020 b7 c6 cd 3d 3a 43 a1 be 97 79 ad bd 44 5c 1d 3d
       0.100476675 -0.31496602 -0.08470457 0.03841807
000030 db 21 49 3e 4a ea db 3d 5c cf c1 bd 3f 60 49 3e
       0.19641821 0.107380465 -0.09463379 0.19665621
000040 f4 52 cc 3d 1e 93 6a bc 04 ad e4 bd 57 0e bd 3c
       0.099767596 -0.014317302 -0.111658126 0.023078127
000050 2a 72 60 3e 4d 6c ce bd 21 57 08 bd 8a 5f f4 3d
       0.2191855 -0.100792505 -0.033286218 0.11932285
000060 27 ff c4 3d 65 e6 d4 3d 14 f3 58 bd 83 e9 ae 3d
       0.09618979 0.10395507 -0.052966192 0.085406326
000070 ad cf 84 be b7 af b6 3d 36 ff 27 3d b2 84 b3 bd
       -0.25939694 0.08920234 0.041014872 -0.08765544
000080 fc 9a 7b 3e 96 22 23 be 06 ef a2 bd 93 75 ab 3d
       0.2457084 -0.15931162 -0.07955746 0.08372035
000090 7c b0 04 bd 03 b6 f7 3c 12 cd 95 3c 85 ac 07 3e
       -0.03239487 0.030238157 0.018286262 0.13249405
0000a0 67 88 bb bb c1 f9 1d bd 60 27 4f bd 14 5b 54 bd
       -0.0057230475 -0.038568262 -0.05057466 -0.05184467
0000b0 47 e9 b8 bd a2 31 07 ba de 55 d8 bc 03 a1 26 bd
       -0.09028869 -0.0005157237 -0.026408132 -0.040680896
0000c0 45 89 6e bd 20 aa ce 3c 27 d9 bf 3c bf 4c ce bd
       -0.05823638 0.025227606 0.023418976 -0.10073232
0000d0 f3 0d 0d 3e 2f 7e c8 bd 56 ca 67 3e 39 00 ce bd
       0.13774852 -0.097896926 0.22635779 -0.10058636
0000e0 95 5b c9 b9 ae ff 9f bd 39 9f b7 be cf bf fa bd
       -0.0003840594 -0.07812439 -0.35863665 -0.12243616
0000f0 82 30 12 3e 53 cc 02 be 8f 74 02 be f7 30 56 be
       0.14276317 -0.12773256 -0.12739776 -0.20917116
000100 7e 31 fe bd 88 6c 93 3d 8d e1 9e bd 27 61 d1 bd
       -0.12411784 0.07198435 -0.07757864 -0.102236085
000110 7b 26 e9 3d f4 37 a2 bc 5b e6 09 be ce d2 10 be
       0.11384293 -0.019802071 -0.1346678 -0.14142916
000120 4a 48 d7 3d bb fc 50 3d fa e3 94 bd 48 6b e3 3d
       0.10511835 0.051022273 -0.072700456 0.11104447
000130 f1 d8 e7 bd 1e 87 c1 3d 3c ba 26 3d d8 58 f6 bd
       -0.11320675 0.094496 0.04070495 -0.12028664
000140 08 e3 e9 3c 85 3e c8 bd 1f 42 85 bc 92 96 74 3c
       0.02855064 -0.0977755 -0.01626688 0.014928477
000150 89 2b ac bd f8 cf 55 bb ed 53 d4 3d 14 cc 5f bd
       -0.08406741 -0.003262518 0.1036757 -0.054637983
000160 18 5f 77 3d 0b 66 de bd 9b 0e e5 3b c0 36 06 bd
       0.060393423 -0.10859307 0.0069902665 -0.032767057
000170 47 87 09 bd 82 a8 a8 bd df 7d 01 be 29 a5 80 bd
       -0.033576276 -0.08235265 -0.12645672 -0.06281502
000180 07 2c 95 bd 5d 68 1c bd ef 0b 50 bd 15 a7 b3 3e
       -0.07283788 -0.038185466 -0.05079263 0.3508841
000190 79 80 69 bd cd a1 82 bd 1e 40 00 be f8 8e 67 be
       -0.057007287 -0.06378517 -0.12524459 -0.22613132
0001a0 00 a8 03 3d 28 dd 96 be 72 94 e6 3b a2 48 56 bd
       0.03214264 -0.29465604 0.007036739 -0.05231536
0001b0 d3 6f 4f 3e c3 4f 35 3e 81 84 e2 3d da 8a 91 3e
       0.20257501 0.17706208 0.11060429 0.28426248
0001c0 5e c0 05 3d a7 29 18 be e1 fc e8 bd 85 a0 39 be
       0.03265416 -0.14859639 -0.11376358 -0.1812764
0001d0 b8 0a bf 3d 14 cd 0a be 9d b3 c6 bb 06 cf bb 3d
       0.09328216 -0.13554794 -0.006063892 0.09170346
0001e0 2d fe 3c bd fb 03 3e 3c 23 a0 07 3e ac 1a 06 bd
       -0.04614084 0.011597629 0.13244681 -0.03274028
0001f0 24 35 b5 bd 79 c1 a0 3d 31 33 53 3d 21 16 3f 3c
       -0.088480264 0.07849402 0.05156249 0.011662991
000200 77 9b d9 bd 75 5b 21 3d c2 7f 84 3d 62 f8 aa bd
       -0.10625356 0.03939386 0.0646968 -0.083481565
000210 c4 58 51 bd 9f f1 78 bc 58 dc 61 3d 68 57 99 bb
       -0.051110044 -0.015194326 0.055141777 -0.004679609
000220 54 a5 0a 3e 8c f0 4a 3e 36 73 92 3d a6 bc 7a bd
       0.1353963 0.19818324 0.07150881 -0.061215065
000230 b2 41 a1 bd 99 63 8e bc 02 22 02 bd ab c7 06 be
       -0.078738585 -0.017381476 -0.031770714 -0.13162105
000240 cc f9 6b be 09 55 5d bc a4 99 95 bd 71 87 61 3e
       -0.23044509 -0.0135090435 -0.07304695 0.22024323
000250 a7 1b bf bd 6e ce b0 bd 0c 29 4f 3d af 2e 28 3d
       -0.09331446 -0.08633123 0.050576255 0.041060146
000260 83 f2 85 3c 22 67 aa 3d c1 7e 67 be 28 d6 e8 bc
       0.01635099 0.08320452 -0.22606947 -0.02842243
000270 17 de 49 bc b9 0a 5d bd 26 cb 06 3e 8a dd ef bd
       -0.012321017 -0.053965304 0.13163432 -0.11712177
000280 43 2d 58 bd 0a 1e a1 bd 29 35 19 be 75 aa 85 3d
       -0.05277754 -0.078670576 -0.14961685 0.06526653
000290 73 9f f3 3d 1a ad a3 bc 0e 75 94 bd b8 4c 2e 3e
       0.11895647 -0.019980002 -0.07248889 0.17021453
0002a0 10 6b 3b bd 81 34 99 bd 94 33 cd bd de 63 1f 3d
       -0.0457564 -0.074807175 -0.10019603 0.0389136
0002b0 bd 6f 8d bd 33 ea 00 bc e1 a6 e2 bd 8c eb 02 bd
       -0.06906078 -0.007868337 -0.11066986 -0.031962916
0002c0 7c 65 ef bd 6c 3c f8 bd 14 ae 98 bd e9 a7 80 bd
       -0.116892785 -0.121208996 -0.07455078 -0.06282026
0002d0 b3 d4 bb 3d ac 47 8b bc 81 c9 c7 bd a7 d5 2b 3e
       0.091714285 -0.01700195 -0.09755231 0.1678072
0002e0 b1 2d ad 3d e5 96 18 be 23 14 97 bd 50 17 dd bc
       0.084559806 -0.14901312 -0.07376888 -0.026988655
0002f0 d5 74 c9 bd 70 ed 08 3e e3 80 36 be 2e 11 7f be
       -0.09836737 0.13371825 -0.17822604 -0.24908897
000300 9d 2d b0 3d 2c ae 75 bd 5a c5 32 3d 13 1b 1f be
       0.0860245 -0.059980556 0.04364524 -0.15537672
000310 78 16 44 be 2b 96 48 3d a4 08 dd 3d 14 ac 8c 3e
       -0.19149196 0.048971336 0.10792664 0.27475035
000320 ea 6d bd bc 0d 53 0c bd 42 c5 e3 bd 9e 5f 06 be
       -0.0231237 -0.03425889 -0.11121608 -0.13122413
000330 10 a4 a7 3d 43 20 e5 3d 84 9e 3f bd a7 af b9 bc
       0.08185589 0.11187794 -0.04678203 -0.022666765
000340 75 60 28 3e 17 04 63 bd bc 2b 1f bc 33 aa 30 bd
       0.16443045 -0.055423822 -0.009715017 -0.043131065
000350 4f 84 e8 3d d8 90 f4 3d 1d 57 a2 3c 5f 0f a9 3d
       0.11353361 0.11941689 0.01981693 0.08254885
000360 d6 a2 98 3d 3d d9 b7 3d b3 18 d4 bc 19 eb 18 bd
       0.074529335 0.08976982 -0.025890684 -0.03733358
000370 e1 ce c6 bc e2 e1 2f bd 95 1f 8a 3d 20 87 5d bd
       -0.02426857 -0.042940028 0.06744305 -0.054083943
000380 59 56 4f 3d 20 59 f7 3d c7 ff 99 bd a2 81 f3 3d
       0.050619457 0.12077546 -0.07519489 0.1188996
000390 3a b4 df bd b1 3c 8d bd 27 3b 49 3d bf 5f d8 bc
       -0.10923047 -0.068963416 0.049128678 -0.026412843
0003a0 60 e1 1f bc 7d 69 03 3e c7 47 ab bd 80 7a 17 be
       -0.009758323 0.1283321 -0.083633 -0.14792824
0003b0 cb 72 04 be 14 6a e0 3c cb 89 55 3e 7d 31 c5 3d
       -0.12934415 0.027394332 0.20853345 0.0962858
0003c0 75 f4 00 3e e5 18 69 be f6 6b 22 3d ec 6c 32 be
       0.12593253 -0.22763403 0.03965374 -0.17424363
0003d0 70 ca 5c 3e 98 ab 26 3d b7 aa 31 be 55 d8 98 3c
       0.21561599 0.04069099 -0.17350279 0.018657843
0003e0 ca 18 83 3d 1c 26 f8 bc ec 6f f4 bd ca c3 09 be
       0.064012125 -0.03029161 -0.1193541 -0.13453594
0003f0 f4 f4 37 3e ee 13 13 be e7 0e bc 3d 15 62 b4 3d
       0.17964536 -0.14363071 0.0918253 0.0880777

bias f4 [512]
000000 dd 8a 80 3d 4d b7 e6 bc 19 66 77 bc c1 94 93 bd
       0.06276486 -0.028163576 -0.015100026 -0.07206107
000010 33 03 b8 bd 8d 1d 03 3d 38 a9 ff 3b 10 7f 89 3d
       -0.08984985 0.032010604 0.007802155 0.067136884
000020 4c 32 d0 bd 8b df fe bd 42 ff d2 3d bc ae cc bd
       -0.10165843 -0.12444981 0.10302593 -0.099942654
000030 b9 b0 a1 3d 99 44 ef 3c 47 4d 8d bc 2b 70 fd 3d
       0.07895035 0.029207515 -0.017248763 0.1237491
000040 2a a2 f5 bc a1 1f 70 bd 83 ef 0f 3d 2e 8f 7a 3d
       -0.029984552 -0.058623914 0.035140526 0.061171703
000050 d3 5e 8c 3d 72 54 2e bd 43 64 74 3d d7 2f a9 3d
       0.06854024 -0.042561002 0.05966593 0.08261078
000060 79 ff 7c bd bd f0 48 bd 96 2b ca bd 85 7a be 3d
       -0.061767075 -0.04905771 -0.098715946 0.093007125
000070 3e 6d 80 bd 51 f1 6f bd 41 6b 1f 3d b8 41 bf 3c
       -0.06270836 -0.058579747 0.038920645 0.023346767
000080 e0 fb dd bd 71 b0 7b 3d 3e 0d cb bd 78 f5 8e 3d
       -0.10839057 0.061447565 -0.09914635 0.06980413
000090 6d 2f 92 3c c2 33 f0 3d a1 ae 10 3d bd 47 64 bd
       0.01784488 0.11728622 0.03532279 -0.055732477
0000a0 0b 40 a2 bd 3d 71 c4 bd ea f2 fb bd ba 16 19 bd
       -0.079223715 -0.09591911 -0.123021916 -0.03737519
0000b0 f6 a7 ee 3d d1 dd 6e 3d 3b 06 b2 3c db 6e ca bc
       0.1165313 0.05831701 0.021731487 -0.024711063
0000c0 4b e1 dd bd 79 b8 46 3d cb 4c 89 3c a3 34 80 3d
       -0.10833987 0.04851577 0.01676025 0.0626004
0000d0 f1 01 2b bd d9 95 11 3c 3f 75 ef 3d da 60 82 3c
       -0.0417499 0.008885824 0.11692285 0.015915323
0000e0 f2 57 7a 3d e6 97 79 bd 03 39 1b be 5c 58 80 bd
       0.061119027 -0.060935877 -0.15158467 -0.06266853
0000f0 ad 09 67 bb b7 42 ae 3d cd fc 0c 3e 03 5c b1 bc
       -0.003525357 0.085088186 0.13768311 -0.02165032
000100 2c 20 17 3c 6f dd 9b bc 35 9c b6 bd d5 53 7f 39
       0.009223979 -0.019026486 -0.08916513 0.00024349925
000110 d8 fd 93 3d 04 75 9e bd 26 d6 c2 3d 45 9a 99 bb
       0.07226151 -0.07737163 0.09513502 -0.00468758
000120 6c fe 92 bd fb d5 f8 bd 7e 45 39 bd 31 f4 32 be
       -0.07177433 -0.121501885 -0.04523229 -0.17475964
000130 1d 60 5d 3d 38 fe d6 bd 30 f9 b1 bd 7e 69 16 3e
       0.05404674 -0.10497707 -0.08690107 0.1468868
000140 ee 53 38 3d b1 7a b4 bd d6 0f d7 3d 0a e4 85 bd
       0.045001917 -0.08812464 0.10501067 -0.065376356
000150 2f be 53 bc 7b d7 e9 bd 0f 36 9e 3d a0 1f 47 bd
       -0.012923761 -0.11418053 0.077251546 -0.048614144
000160 21 0d 49 3d 75 99 41 bd 67 90 85 3b e9 9a 01 bd
       0.049084786 -0.04726549 0.004076052 -0.031641874
000170 c8 29 8a 3d 37 85 a4 bd b2 8a 98 3d 3c 95 e9 bc
       0.067462504 -0.08033221 0.07448329 -0.028513543
000180 21 7a 78 bc fd 59 80 bd d1 25 3f bd c3 2e a8 bd
       -0.015165837 -0.06267164 -0.046666924 -0.08212044
000190 57 c5 a3 3d 89 c8 72 3d e8 48 71 bc 26 7b af 3d
       0.07996624 0.059273276 -0.014726855 0.085684106
0001a0 21 10 2f 3d 82 14 3c bd fa e7 87 3d da 06 f4 3d
       0.04273999 -0.045917995 0.06636043 0.11915369
0001b0 d0 a4 bc 3d 74 c3 fd 3d f7 96 b2 bd 4e cd ec bd
       0.09211123 0.12390795 -0.087202005 -0.11562596
0001c0 76 24 2f 3c 52 1c cf 3d 7c 53 c1 bd a7 99 86 3b
       0.010689845 0.101128235 -0.094397515 0.0041076723
0001d0 03 11 9a 3d 41 8e 07 3d eb 5e 8f bd ce 14 59 3d
       0.07522776 0.03309465 -0.07000526 0.052998357
0001e0 c9 e3 56 3c 94 58 c5 3d 6b d6 60 3d 0e 79 21 3d
       0.013115832 0.096360356 0.054891985 0.039422087
0001f0 55 03 58 3d c0 e8 bb 3c 42 15 18 3d 6a aa bf bd
       0.052737553 0.022938132 0.037129648 -0.09358676
000200 4a f0 41 3d 62 93 ec bd ee bf 06 bd ce 88 72 bc
       0.047348298 -0.115515485 -0.032897882 -0.014803125
000210 ad cd 85 bc 0a 73 f3 bd 3d cf dc 3d 6c 5f 63 3d
       -0.016333425 -0.11887176 0.10781715 0.055510923
000220 ab e7 75 bc bf 0f 94 bd 5b 1b 0e bd dc 5d f2 bd
       -0.015008847 -0.07229566 -0.034694057 -0.118343085
000230 c9 65 e6 bd 84 c9 89 bd e6 41 97 3b ce b8 24 3d
       -0.11249883 -0.06727889 0.00461601 0.040215306
000240 08 59 18 3e 8a 4b 91 39 24 9d e8 bd 1b 0e b4 bd
       0.14877713 0.00027712836 -0.11358097 -0.08791753
000250 52 0f cd 3d 60 e1 17 bc 01 3e 73 bc 07 8b b1 3b
       0.10012688 -0.009270042 -0.014846326 0.0054181847
000260 d2 ae 00 be 00 e4 cc 3c 99 62 90 3c f5 65 2c 3d
       -0.12566689 0.025011063 0.01762514 0.04208942
000270 71 db c8 bd ea 8e d7 bd 91 5b 5e 3c 54 c0 7c bd
       -0.0980748 -0.105253056 0.013571636 -0.061706856
000280 0e 95 e0 bd b9 82 ad bd 8c 52 79 bc df 68 7e 3d
       -0.1096593 -0.08472199 -0.015217435 0.06211173
000290 4f f0 ac bd bb 77 39 3d c3 c0 98 bd 13 3c 61 3d
       -0.08444273 0.0452802 -0.074586414 0.054988932
0002a0 05 8c a6 3d 12 67 f6 3c 25 e8 c8 bd e3 d4 b7 bd
       0.08132175 0.030078445 -0.09809903 -0.08976152
0002b0 3c 41 c4 bd 28 b4 e7 bb 17 ac 5c 3d df 17 a2 3d
       -0.09582755 -0.007071037 0.053875055 0.07914709
0002c0 ad 7f 9c 3d b5 c0 aa 3d 71 cd f0 3d 3a df fb 3d
       0.0764154 0.08337537 0.11757935 0.122984365
0002d0 ec 17 65 3d 70 b1 16 bd 41 cb 7d 3c 25 14 cf bd
       0.055931017 -0.03679031 0.015490354 -0.10111264
0002e0 fe cd 84 bd 6d 7c 2a be 56 2a 7e 3d c6 3f d0 bc
       -0.064846024 -0.16649027 0.062052093 -0.025421035
0002f0 39 20 f5 3d 0f 4d c5 bd 86 75 28 be 95 5c 39 bd
       0.119690366 -0.096338384 -0.16451082 -0.04525431
000300 99 97 f8 3d 27 91 bd 3d 0f 0f c5 bd 06 a1 1d be
       0.1213829 0.09256201 -0.09622013 -0.15393457
000310 32 18 bd 3d c3 9f 77 3d b6 25 bb 3c 0b 6b b5 bd
       0.092331305 0.060455095 0.02284513 -0.088583075
000320 cf a3 8b 3c b6 80 60 bd c2 2c a8 3d 8d 7c 66 3d
       0.017045883 -0.05481025 0.08211662 0.056271125
000330 64 a2 f5 3a ab 39 f7 3b 31 23 bd 3d ed 96 27 bd
       0.0018740413 0.0075447164 0.09235228 -0.04091542
000340 1b b0 88 3d 6a 0e a8 bd 00 51 df bc d7 59 47 3d
       0.066742145 -0.08205874 -0.027260303 0.048669662
000350 ad 7a d9 3d 3d be e3 3d 80 e5 f3 bd 80 ba 8e bd
       0.10619102 0.111202694 -0.11909008 -0.06969166
000360 ad d2 b9 3d f7 f6 6a bd c2 71 8c 3d e4 ba d7 bc
       0.09073386 -0.05736443 0.06857635 -0.026334234
000370 76 9e 87 3d 10 e2 d4 3d 5e 74 7f bd 3d 6b 6d 3d
       0.06622021 0.103946805 -0.062366836 0.0579636
000380 40 ab eb 3d 53 36 ad bd 64 e6 95 3c f6 88 d3 3d
       0.11507273 -0.08457627 0.018298335 0.103288576
000390 16 17 2e be 1e d8 af bd 42 8e 07 3d 19 e7 a1 3d
       -0.17000994 -0.08586143 0.033094652 0.079054065
0003a0 a4 1a b5 bd 8d 00 17 be c3 56 a4 3d 35 22 c9 bd
       -0.08842972 -0.14746304 0.08024361 -0.098209776
0003b0 c1 d9 6b 3d ea ba e2 bc c9 ba 11 bb ae bd dc bc
       0.057580713 -0.027677018 -0.0022236577 -0.026945915
0003c0 5e 24 48 3d d9 be a7 bd 39 9f 09 bc 11 ce a6 bb
       0.048862807 -0.08190698 -0.008399778 -0.005090483
0003d0 1b 73 d7 bb 6e 3d 8a bd 9d cb 06 be f4 69 c1 bd
       -0.006575001 -0.06749998 -0.1316361 -0.09444037
0003e0 53 f6 ca 3d 6c 6c e6 bc e3 1b 0b be 5a 73 e7 3d
       0.09910264 -0.028127871 -0.13584857 0.113012984
0003f0 24 36 fd 3d ab b4 01 3d 0a 8a cf 3b 76 01 9e bd
       0.12363842 0.03166644 0.006333594 -0.077151224

weight f4 [256, 512]
000000 ab f0 a9 bc e9 d1 e4 bc c2 47 9b bc af be 1a bd
       -0.020744642 -0.027932124 -0.018955115 -0.037779506
000010 cd df 79 3d a2 e8 23 bd 96 3c 26 bd db b0 03 bd
       0.06100445 -0.040016778 -0.040585123 -0.032151084
000020 22 f3 0c 3c 34 6e 7e bd 68 01 a3 bc 1d d1 58 bd
       0.008602889 -0.062116817 -0.019898131 -0.0529338
000030 9a 3d 34 bc 31 ce 8e 3c 9e 1f 66 3d c0 00 21 bd
       -0.011001015 0.017432304 0.056182496 -0.039307356
000040 75 ce 43 3c 74 91 3c 3b 75 28 9d 3c b3 2f 5c bc
       0.011951079 0.002877322 0.01918433 -0.013439107
000050 a5 2f 81 bd 71 15 e9 bc ac 02 fc bc f4 4c 26 bd
       -0.063079156 -0.028452607 -0.030762993 -0.040600732
000060 98 07 d5 bc 0a 31 57 3d 6f 9d e7 3c 33 1e ab 3d
       -0.026004598 0.052537 0.028273312 0.083553694
000070 8f c2 b3 bc 8b 7e bd 3c 10 0d 1c 3d ae 76 f8 bc
       -0.021943359 0.02313163 0.038098395 -0.030330028
000080 69 13 94 3a 06 83 30 3d 90 d2 6d 3b 1c a3 10 3d
       0.0011297289 0.043093704 0.0036288835 0.035311803
000090 d6 3b 8f 3c 28 6b a0 3b 00 4d e8 3c 89 94 4a bd
       0.017484587 0.0048955865 0.028357029 -0.04945806
0000a0 cf c4 8f bc ef 02 23 3d 57 15 ce bb 0d 4f 5a 3d
       -0.0175499 0.03979772 -0.006289165 0.053298045
0000b0 46 be 39 3d 59 45 4d 3b 6e af 1c 3d d2 d0 f7 3c
       0.045347475 0.0031321852 0.03825324 0.03025094
0000c0 94 ed 24 3d 60 28 28 bc a6 02 53 bc f0 73 3f bd
       0.040265635 -0.010263532 -0.012879049 -0.046741426
0000d0 f3 8b 0f bd 94 84 65 bd bb eb 0a bd be 2e be 3b
       -0.035045575 -0.05603464 -0.033916216 0.005803912
0000e0 61 df 13 bd 1e 5e 2b bd b4 04 4c bc 99 f3 1d bd
       -0.036101703 -0.041837804 -0.012452293 -0.03856239
0000f0 47 8d 82 bc 97 e6 2e bc 55 6f 57 bc 88 94 fb 3b
       -0.015936507 -0.010675094 -0.013149102 0.0076776184
000100 b9 fc 7b 3d e1 ac 8d bc 94 48 e7 3b 8c 6e 87 3b
       0.061520312 -0.01729435 0.0070582125 0.0041330513
000110 b5 56 5b 3b 6e 72 93 3c 8f c5 5b bd 38 78 bf 3c
       0.003346843 0.0179989 -0.053655203 0.023372754
000120 d5 2c 65 3c f9 21 18 bd 41 21 ea 3b 7c aa 31 3d
       0.01398774 -0.037141774 0.0071450775 0.043375477
000130 50 8c 10 bc 9c be 2c bd 6e ae 75 3c e2 e9 51 ba
       -0.008822516 -0.042173967 0.014995201 -0.00080075685
000140 36 7c 33 bd 1c 7f f7 3c e2 7b b5 3c 1e e4 d2 3c
       -0.04381963 0.030211978 0.022153798 0.02574354
000150 94 d4 32 3d d6 75 db 3c f8 6f a8 bc a0 9e 7e bd
       0.04365976 0.026789587 -0.020561203 -0.062162995
000160 78 91 36 3d 87 8c 89 bd 03 0a 3d bd 49 81 9a 3c
       0.044572324 -0.067162566 -0.046152126 0.018860476
000170 09 68 8b 3d 6b 33 d4 bc a4 ad 43 3d cf ce 7a bd
       0.068069525 -0.025903424 0.04777302 -0.061232384
000180 dd ea 85 3d 7d 6b 80 b9 e7 07 40 3d 8e ec 24 bc
       0.06538937 -0.00024494148 0.046882536 -0.010066165
000190 0e f7 7c 3d d8 59 0a bd 99 1f 02 3c 70 af 21 3d
       0.061759047 -0.033777088 0.007942104 0.03947395
0001a0 2b b7 1a bd 2d cc b1 3b bb 7c 06 bc 3f f3 1c bd
       -0.03777234 0.005425951 -0.008208449 -0.038317915
0001b0 15 22 ab bb f2 44 04 3c 8c 2a 8b bd c2 c8 11 bd
       -0.0052225688 0.0080730785 -0.067952245 -0.03559185
0001c0 b8 9c 82 3d ca 2b 0e bc 7a 8a b5 bb 55 da 4d bc
       0.06377548 -0.008677432 -0.0055401893 -0.012564261
0001d0 f1 28 a6 3b ca 09 ae 3d b0 31 e2 bc 9a 38 9c 3c
       0.0050707986 0.08497961 -0.027611583 0.019069958
0001e0 c5 e7 1a 3d 88 08 36 bd b6 a6 32 bd 5d b3 a5 3d
       0.03781869 -0.04444173 -0.04361602 0.080908515
0001f0 4a ca 2e bd 76 85 11 bd a8 00 69 bd 0c 20 cb 3c
       -0.042673387 -0.03552767 -0.05688539 0.024795555
000200 df 1f a4 ba 49 20 55 bd 61 b5 c0 bb 04 6d 3b 3c
       -0.0012521705 -0.052032743 -0.005880997 0.011439566
000210 ae f1 52 3c 6a ab 23 3c f2 49 7f bd f6 ad ee 3b
       0.012875004 0.009989599 -0.06232638 0.0072839214
000220 1b 5c 17 3c 2d 0c 8d 3d be 09 24 bc ae 10 7e bc
       0.009238268 0.06887088 -0.010012088 -0.015506906
000230 3e 43 98 bc e0 71 08 bd ec 8b bf 3c 97 da 81 bc
       -0.018586751 -0.033311725 0.02338215 -0.015851302
000240 9b 8b b5 bd c7 25 67 3d ed 4c 24 3d 57 85 99 ba
       -0.08864518 0.05643251 0.040112425 -0.0011712712
000250 e5 56 1e ba 6b 4f 42 3d d4 ed 34 bc 3b c1 da 3c
       -0.000604017 0.04743902 -0.011043031 0.026703468
000260 b0 33 cd bc c5 6c c0 bc 95 c2 0d bd 9e 75 d2 3b
       -0.02504906 -0.023489365 -0.034609396 0.0064227125
000270 2b 3a 16 bc 9c 77 02 3d 17 63 12 3d 4a e0 34 3c
       -0.009169142 0.03185235 0.03573903 0.011039803
000280 cd 1e bc bc 00 8c 32 3d 58 ef 9a bc 3d a3 58 bd
       -0.022963906 0.043590546 -0.018912956 -0.05289005
000290 75 8f 0b bc a4 8c 30 bd 06 81 71 bd f1 8b 8a ba
       -0.00851809 -0.043102875 -0.058960937 -0.001057027
0002a0 9c cd c9 bc dd 1b 3e 3d e3 08 b7 bc 2c 78 1b bd
       -0.024634175 0.04641329 -0.022343105 -0.0379564
0002b0 5e 0a 9d 3c a7 6c 98 3d 92 fe 0f 3d cf ae 8c 3c
       0.019169983 0.07442599 0.035154887 0.017173199
0002c0 cd 7c b0 bd 9f e1 a2 3c 97 eb 90 3d 1b ec 06 bb
       -0.08617554 0.019882975 0.07076185 -0.0020587507
0002d0 80 92 0c 3d be 4e 1c bb 79 61 1f bd f5 e8 12 3c
       0.0343194 -0.0023850645 -0.038911317 0.008966674
0002e0 17 01 a0 bc b4 17 d5 3c e7 6e c0 3b 6c 29 e6 3c
       -0.01953177 0.02601228 0.0058725956 0.028095923
0002f0 94 c8 74 ba 5b 2e 52 bc c4 7d a8 bd f0 d2 62 3d
       -0.000933775 -0.012828435 -0.08227113 0.055376947
000300 e5 5d 27 3d 95 82 d2 3c 4a b8 23 3d 83 82 48 bc
       0.04086103 0.025697032 0.039970674 -0.012238148
000310 d1 85 df 3c d2 78 39 bc 71 11 0f 3d 31 de b9 3c
       0.027285488 -0.01132031 0.034928743 0.022688957
000320 ff da 2b 3d 53 57 b4 3c 28 da 8b bd 01 84 cd bc
       0.041956898 0.022014296 -0.068287194 -0.025087358
000330 65 38 12 3d dc d1 22 bd 59 cb eb bc 98 d3 ef bb
       0.035698313 -0.03975092 -0.028783487 -0.007318925
000340 8f e9 9d 3a 17 ef 7f ba 40 a3 f3 bc 2f b5 36 3c
       0.0012047755 -0.0009763105 -0.02974093 0.011151596
000350 47 84 16 bc 3a 40 86 bb 45 95 e3 3c 53 63 0f 3d
       -0.009186811 -0.004097012 0.027781138 0.035006832
000360 3d 63 01 bd fa b5 3b bd 59 74 da 3c c1 9d f5 3b
       -0.03158878 -0.045827843 0.026666807 0.0074956124
000370 a2 de 77 bd da 93 2b bb db 0a c2 bb ff 11 7d 3c
       -0.060515054 -0.0026180656 -0.005921704 0.015446185
000380 b8 31 15 bd df c3 99 3c 3a 34 34 3d fd d6 ae 3d
       -0.03642437 0.018770156 0.04399512 0.085370995
000390 4d 36 f9 3c fb 75 91 bc 2c 1a b9 3c 23 49 1f 3d
       0.0304214 -0.017756453 0.022595488 0.038888108
0003a0 e7 5b 3a 3c 2a 84 2e bc 6f a7 0f 3c 9c 48 31 bd
       0.01137445 -0.010651628 0.008767947 -0.043282136
0003b0 72 f3 f3 bc 82 5e e2 3c 1a f6 ad bd fa 9c 57 3b
       -0.02977917 0.027632955 -0.08494206 0.0032899962
0003c0 2b 97 95 3c ab fa 15 bc b2 06 47 3d f3 e8 2e 3b
       0.018260559 -0.009154002 0.04859037 0.0026689142
0003d0 c1 ca be bc 7a 32 34 3b 10 e6 51 bc 65 12 2f bd
       -0.02329004 0.0027495907 -0.012811199 -0.04274215
0003e0 88 36 42 bd 0b 0f 6a 3c cd 28 cf 3c ac 71 90 3c
       -0.047415286 0.014285813 0.02528801 0.017632328
0003f0 86 47 8a 3d 4c 64 2f 3d c1 85 92 bd 17 b3 29 bb
       0.06751923 0.04282026 -0.07154418 -0.00258941

bias f4 [256]
000000 f2 8e 25 3d d7 ce b2 3c 55 10 9c bc ab 32 8b 3c
       0.040419526 0.021827145 -0.019050756 0.016991934
000010 07 cc 20 3d ea 2e dd 3c dc d2 c3 3c 21 e8 2e 3d
       0.039257076 0.02699991 0.023904257 0.042701844
000020 7e 76 27 3d a8 5f 19 bd b4 18 87 3c 7e 41 9a 3c
       0.040884487 -0.03744474 0.016491272 0.018830057
000030 76 09 51 bc 2f 47 e6 bc e8 4e 1a 3d 75 f9 0b 3d
       -0.012758603 -0.028110115 0.037672907 0.034173448
000040 80 4b 38 bc 7b ed 1b bd 57 aa da 3c 62 13 7b bc
       -0.011248469 -0.038068276 0.026692552 -0.015324445
000050 f5 b8 2f bd 5c 5f 17 bc fe e1 8a 3c 44 23 01 bd
       -0.042901 -0.009239044 0.016953465 -0.031527773
000060 e4 e9 fe 3c 74 68 2d 3d fb 0b 78 bc 55 22 e6 ba
       0.031117387 0.042335942 -0.015139575 -0.0017557839
000070 77 8c 9d 3c e6 ef c7 bc 45 46 1f 3d f2 d3 4d bd
       0.019232018 -0.024406385 0.038885374 -0.050250955
000080 6e e2 d2 3c b2 89 63 bc 31 11 8d bc 9e a5 2f 3d
       0.025742736 -0.01388781 -0.017220112 0.042882554
000090 75 e2 aa bc a4 6b 94 3c 22 fc 00 bb 6c 40 67 bc
       -0.020859936 0.018117733 -0.0019681533 -0.01411448
0000a0 a8 28 1f bc bf 54 30 bd 06 57 0b bd 68 20 2a bd
       -0.009714283 -0.04304957 -0.03401854 -0.04153481
0000b0 e7 92 43 3b 3c 25 c3 3c 2a b1 8f 3c bc 97 9b bc
       0.00298422 0.023821466 0.017540533 -0.018993251
0000c0 32 e2 25 bc c6 f3 f3 3c 8b d6 06 3d 2b 63 9d bc
       -0.01012473 0.029779326 0.032919448 -0.019212326
0000d0 2d 88 4a bd 3d 73 97 bc d2 b1 d3 b9 ba ca 0d bc
       -0.049446274 -0.018487567 -0.00040377543 -0.008654291
0000e0 1f 05 a0 bd 96 0b 88 bc 6b ac 58 bd 01 e2 0a bd
       -0.07813477 -0.016607087 -0.052898806 -0.03390694
0000f0 8c d5 09 bc 7d 04 a0 3c 7a 3e 11 3d fc 94 8f 3c
       -0.00841273 0.01953339 0.035459973 0.017527096
000100 7d d8 71 bd 2e 76 82 bd 12 7b 4c bd f5 a8 4c bb
       -0.05904435 -0.06370197 -0.049922056 -0.0031228636
000110 99 fc 61 3c e2 23 5f 3c 9a c6 69 3c bf 51 2d 3d
       0.013793134 0.013619395 0.014268542 0.042314287
000120 2f 5e bd 3c b1 d5 e7 bc e9 20 00 b8 cb 70 b8 3b
       0.0231162 -0.028300138 -3.0548228e-05 0.0056286803
000130 a7 2b cb bc f2 81 bc bc 40 cd 2b bd 32 17 4c bd
       -0.024801088 -0.023011182 -0.04194379 -0.04982681
000140 cc 70 73 bc bf 22 1e 3c 78 8a 97 bb 54 b6 e6 3c
       -0.014858436 0.009651839 -0.004624661 0.028163113
000150 63 d6 48 bb e9 79 ac 3c dd 27 45 3c 35 11 1c 3d
       -0.0030645363 0.021054225 0.01203343 0.038102347
000160 d5 1a 17 bd 2a 2c 28 3d 64 9e 17 bd 6a 66 0b 3d
       -0.036890823 0.041057743 -0.037016287 0.034033217
000170 db 62 b4 ba 14 cd 2b 3d dd 17 9a 3c 1d 21 5b 3c
       -0.0013762371 0.041943625 0.018810207 0.013374594
000180 ba 22 78 bb 20 d2 ad bb 12 cb c6 3b db e5 ae 3c
       -0.0037862496 -0.00530459 0.0060666883 0.021349838
000190 83 8f ee bc a9 cb 67 3b a6 7b 87 3c ac 1f 9c 3c
       -0.029121166 0.0035369194 0.016538452 0.019058071
0001a0 b4 c7 24 bc 1d fe 50 3c 1d 26 8d 3c c1 1a 9d bc
       -0.010057379 0.012755898 0.017230088 -0.019177796
0001b0 4b 8a ca 3c 92 04 28 3d c3 29 13 3c 6b d1 0e 3d
       0.024724146 0.041019984 0.008982125 0.034867685
0001c0 ae 78 88 3c d6 19 94 3c 25 a3 8a 3c d8 e9 05 bd
       0.016659107 0.018078726 0.016923496 -0.032693714
0001d0 78 40 46 bc e0 ed 45 bd 90 3b b2 bc 56 d9 b6 3c
       -0.0121003315 -0.04832256 -0.021756917 0.02232043
0001e0 b4 d5 bc bc 13 1d 02 3d 0b b2 32 3d 54 ec ad bb
       -0.02305112 0.03176601 0.043626826 -0.0053077135
0001f0 fa 02 fc 3c 6d 95 2b 3d cb 0a 19 3c 26 fc 9a 3c
       0.030763138 0.04189055 0.009340952 0.018919062
000200 3b 8c 00 bd 4f 08 59 3b d9 2d 6e 3c 6b 5d 05 bd
       -0.031383734 0.0033116525 0.014537298 -0.032559793
000210 20 45 86 3c a9 d5 30 bd 64 fd 5d 3b 51 99 1b 3c
       0.016390383 -0.043172512 0.0033872956 0.009497003
000220 66 fe fe 3b b5 ad 10 bd c3 39 20 bd 82 9d 36 bd
       0.0077817915 -0.03532191 -0.039117586 -0.044583805
000230 13 1d 8c 3b 6a 74 eb bc 93 e0 5a bc 11 1d e4 3c
       0.004275927 -0.028742034 -0.013359207 0.027845891
000240 2f cf b4 bc 51 97 a3 3c 6f 28 8e bc 35 34 1e 3d
       -0.02207145 0.019969614 -0.017353265 0.038624007
000250 96 9f 84 bd 24 02 eb bc 91 ef 20 bd 02 84 d0 3c
       -0.06475751 -0.028687544 -0.03929097 0.025453571
000260 73 d7 ee bc 92 28 b4 3c 9d 39 22 3d 8a ce a0 3c
       -0.029155469 0.021992002 0.039605726 0.019629735
000270 3a 12 12 bd 12 8a 04 bd be 1a b2 bc fe 93 b1 3c
       -0.035661913 -0.032358237 -0.021741267 0.021677013
000280 a4 be 09 3d 65 c1 da bc a6 77 12 bd b2 84 b7 bc
       0.033629075 -0.026703546 -0.035758637 -0.022402141
000290 c8 0a ac 3c 07 0a cb 3b 26 10 3e bc aa 02 6a bc
       0.021001235 0.0061962637 -0.01160053 -0.014282862
0002a0 2e 67 09 3b ed f7 c5 bc 5c 16 8b 3c 5e a5 33 3d
       0.002096604 -0.024166072 0.016978435 0.04385888
0002b0 5c 93 06 bd a8 d6 f8 bb e8 dc aa bc ef 40 fb 3c
       -0.032855377 -0.0075939484 -0.02085729 0.030670611
0002c0 9e 7b 06 bd 3b 5e 18 bd 6c bf 57 3b 8f 1f 88 bc
       -0.032832734 -0.03719924 0.0032920493 -0.01661661
0002d0 40 7c 93 3c 01 37 36 bd fc a7 ec 3c 21 13 26 3d
       0.018003583 -0.04448605 0.028888695 0.040545586
0002e0 57 9c 8c 3b c0 a7 23 3c 65 0b 18 bd 58 70 6e bd
       0.004291098 0.009988725 -0.03712024 -0.058212608
0002f0 a7 02 2a 3c 2b 3b bb 3c e6 31 0e 3d 44 c5 bc 3a
       0.010376609 0.022855362 0.034715556 0.0014402051
000300 61 32 e6 3b c5 6b 25 3c 13 76 f9 3c 21 0d af 3c
       0.0070250486 0.010096495 0.03045181 0.021368565
000310 8e 01 6f bc 7a 83 e5 3b 79 bb 1e bc 83 8b b0 bc
       -0.014587773 0.0070041986 -0.009688252 -0.0215509
000320 90 a9 b2 3c d9 b8 83 3c 8f 9c 2f bd 94 de 14 3d
       0.02180937 0.016079353 -0.042873915 0.03634508
000330 61 5f e8 bc 62 6c 8c 3c 73 cb 18 bd e8 6c 46 bc
       -0.028365793 0.017141525 -0.0373034 -0.012110926
000340 50 d7 19 3d d3 64 91 3c 5b 89 e7 bc 19 7a 8e bc
       0.037558854 0.017748272 -0.028263738 -0.017392205
000350 51 3f f1 3c 68 da 67 3d 3e f8 21 bd 21 0e c9 3c
       0.029449137 0.056604773 -0.039543383 0.02454287
000360 fe 3f 1a bd be 9f 2d bc 3d 45 b2 bc 6a 4d 11 bc
       -0.037658684 -0.010597168 -0.021761531 -0.008868555
000370 aa c7 6e bb 83 be f4 bc 98 56 13 bd 29 6b d8 bb
       -0.0036434927 -0.029876 -0.035971254 -0.0066045714
000380 d3 c9 eb bc 4f f7 67 bc 24 00 73 bc 18 fc d1 bc
       -0.02878276 -0.014158084 -0.0148315765 -0.025632903
000390 79 e0 97 3c 4e ce 90 3c 25 f1 15 bc 4c d7 70 bc
       0.018539654 0.017676499 -0.009151732 -0.014699768
0003a0 c1 19 8c 3b 65 34 7e bd 55 a4 ad bb 62 03 0e 3d
       0.004275531 -0.062061686 -0.005299131 0.034671195
0003b0 38 19 7f bc 8a c0 8b 3c f4 eb 54 bd 0a 9f a3 bc
       -0.015569977 0.017059583 -0.051982835 -0.019973297
0003c0 fb 16 5c bc 20 61 b0 3c 2a f9 28 bd 11 09 39 bd
       -0.013433213 0.021530688 -0.041253246 -0.045174662
0003d0 98 30 54 3c af 2a 09 bd 53 5c 1a 3c 7d 30 32 bc
       0.012951039 -0.033487972 0.009421426 -0.010875818
0003e0 de e3 e4 bc 13 67 da 3c 72 da 08 3c f6 cf 79 bb
       -0.027940687 0.026660478 0.008352863 -0.003811834
0003f0 a8 5d 43 bd 08 a3 70 bc 33 9e 09 bd f3 0d cd bb
       -0.04769674 -0.014687307 -0.033598136 -0.0062577664

weight f4 [128, 256]
000000 e9 31 a4 3c c7 b4 ae 3c 5b 30 b2 bc 2b 38 5c bd
       0.02004333 0.021326436 -0.021751573 -0.053764503
000010 c0 7b aa 3b ed 69 43 3d 44 6f 45 3d d9 8e 61 3d
       0.0052027404 0.04770844 0.048201814 0.05506787
000020 87 c1 85 bd e5 f9 61 bd 7d 78 61 3d 6b d2 35 3d
       -0.06531053 -0.05516996 0.055046547 0.044390123
000030 e6 03 9e bd 20 ae 31 bd 36 e3 87 3d 49 5a 10 3d
       -0.07715587 -0.04337895 0.06635134 0.035242353
000040 2f c0 18 bd 00 3a d0 3c ea a0 03 bd d6 6d 3a 3d
       -0.037292656 0.025418282 -0.03213588 0.045514904
000050 5a 6f 79 bc e8 e8 92 bd 22 70 99 bd 02 30 37 36
       -0.015224302 -0.071733296 -0.07492091 2.729707e-06
000060 79 00 18 bd c8 2c 9e 3c c9 9f 18 bd a7 6b 13 3d
       -0.037109826 0.019308463 -0.037261758 0.035991337
000070 aa 96 ea 3c 64 33 b2 bc cb c6 e2 3c f0 6e a4 bd
       0.028636295 -0.02175302 0.027682682 -0.08028972
000080 d6 18 80 3c 3e dc 32 3d 94 c5 79 bd 42 c6 88 3d
       0.015636843 0.04366707 -0.06097944 0.0667844
000090 e2 b4 2e 3d f8 b4 f3 bc 9d c0 8b 3c f2 03 25 3d
       0.042652972 -0.029749379 0.017059619 0.040286966
0000a0 87 ea 4e bc 2d 89 77 3d b0 87 43 bd 08 8e 1f bd
       -0.012629158 0.060433555 -0.047736824 -0.03895381
0000b0 75 b3 fd 3a 47 cf 46 bd 52 fe 80 bd c1 cc 6a bd
       0.001935585 -0.04853752 -0.06298508 -0.057324175
0000c0 18 2c 2f bd 45 93 51 3d 09 fd 6f 3d 4e cc b3 bc
       -0.04276666 0.051165838 0.058590923 -0.021948006
0000d0 20 8f 83 3a ca b9 53 3d bc 61 20 3c 3d 6f 43 3d
       0.0010037161 0.051690854 0.009788927 0.047713507
0000e0 25 f9 fc 3c 3f d1 d4 3b cc ab 9e bb 30 4c 58 3d
       0.03088052 0.0064946706 -0.004842257 0.052807033
0000f0 9c 72 fe bc 05 0b 51 3c 64 76 23 3d 2d 23 28 3d
       -0.03106051 0.012758975 0.039907828 0.04104917
000100 2a 8d 66 bd a5 7c 60 bb cb 15 1e 3c bc 14 da bc
       -0.05628697 -0.0034253981 0.009648751 -0.026621215
000110 b6 43 36 bc 13 8d 6d bd 06 c5 36 3c e8 47 8a bd
       -0.011124542 -0.057995867 0.0111553725 -0.06751996
000120 84 69 f1 3c 5a 6c 7c bd f0 32 c7 3c 21 52 5b 3d
       0.02946926 -0.06162677 0.024316281 0.05354512
000130 de a5 17 bd c6 bf 84 3d 94 6f 82 3d 47 29 a4 bc
       -0.037023418 0.064818904 0.06368938 -0.020039214
000140 c3 e3 60 bc 5f 76 a5 bc f5 29 91 3d 3f 3b 0c bd
       -0.013726178 -0.020198045 0.07088081 -0.03423619
000150 d3 7a f1 3c d6 cc 3f bd 0b 5a 8c bd 63 be f0 3c
       0.029477512 -0.046826206 -0.06853112 0.029387658
000160 30 b4 54 bb 08 13 53 3d 12 00 e7 3c 01 d1 be 3c
       -0.0032456033 0.05153182 0.028198276 0.02329302
000170 8e 78 8c bd 5b d3 7c bc 40 6f 84 bb 60 2e 06 3c
       -0.068589315 -0.01543125 -0.0040415823 0.008189768
000180 e5 30 86 bd 7b f3 79 3d 4f 58 e9 3c 38 46 45 bd
       -0.06552295 0.061023217 0.028484492 -0.04816267
000190 1f 27 99 3d cd 82 42 bd 6f 85 c5 bc e1 3c 1b 3c
       0.07478165 -0.047488023 -0.024111478 0.009474964
0001a0 5a 4f 59 3c e9 b7 43 bd f7 d2 b4 3a 30 a9 9b bb
       0.013263548 -0.047782812 0.0013795783 -0.0047503933
0001b0 6e a5 f9 bc 36 4b b6 ba 8a 9a 8b 3c 47 63 22 3d
       -0.03047439 -0.0013907913 0.017041463 0.03964546
0001c0 af 83 fc bc ef 6e 9a bc 9f 42 0c bd bd 5f e8 3c
       -0.03082451 -0.018851725 -0.034243222 0.028365964
0001d0 68 d9 e1 3c e4 95 f9 bb c8 0d 25 bc 37 c6 85 bc
       0.027569488 -0.0076167453 -0.0100740865 -0.016329868
0001e0 5a c6 20 bc e0 3d 3f bd b2 bb cd bb 56 85 9c bd
       -0.009812916 -0.046689868 -0.0062784785 -0.07642619
0001f0 68 24 6c bd a7 83 b7 bd eb 02 5f bd 14 e2 a1 3c
       -0.057651907 -0.089606576 -0.054446142 0.019761123
000200 c1 31 37 3d 74 df 30 bc 8d 75 a7 3b 36 e0 8d 3c
       0.044725183 -0.010795463 0.0051104487 0.017318826
000210 d1 cc 2f 3d 10 b9 ae bc af 2d 23 bd dc a5 39 3d
       0.042919938 -0.021328479 -0.03983849 0.04532419
000220 2b db 5e bd e2 98 0d bd a2 ab 29 3d 21 94 ae 3c
       -0.054408234 -0.03456963 0.041423447 0.021310868
000230 fc 7d 06 bd ea 99 d2 bc fa c7 37 bd 63 44 3a 3c
       -0.03283499 -0.025708158 -0.044868447 0.011368844
000240 23 48 88 bc ca 37 a0 bd c5 d8 9f 3b 4c ea e3 bc
       -0.01663596 -0.07823141 0.004878136 -0.027821682
000250 fc b3 2e bd b7 8e f9 3c c9 d7 ce 3b a1 17 af 39
       -0.042652115 0.03046356 0.0063123447 0.00033396206
000260 c0 1a 02 bd 96 b5 10 bd 2b cb 6f bd 8c f5 86 3d
       -0.031763792 -0.035329424 -0.058543365 0.06589803
000270 13 26 2f bd eb 97 15 3d 9f e9 e9 bc 2d e8 9e bc
       -0.04276092 0.036521833 -0.028553782 -0.01939782
000280 6a 92 42 3d 71 fc 63 bd 7b 05 a3 3b 91 3c ed 3a
       0.047502913 -0.05566067 0.0049750186 0.0018099715
000290 df 2f 5f 3d d7 05 9e 3c 72 41 bf bb 50 7f d3 3c
       0.054489013 0.019289894 -0.005836659 0.025817543
0002a0 8e df 4c 3d de 33 52 bd 3b d9 01 3d 50 98 e3 bc
       0.050017886 -0.051318996 0.031701308 -0.02778259
0002b0 5f 53 81 3d bb c4 cc 3c be 35 be bc 2c 12 45 bd
       0.0631473 0.024996152 -0.023218986 -0.048113033
0002c0 b5 dc 8d 3d 91 3a f0 3c 17 e3 a2 bc f5 f1 ae 3d
       0.06926862 0.029324802 -0.019883676 0.085422434
0002d0 96 61 ec bc f6 32 5a bd 0e b8 c2 bc 69 f1 54 bd
       -0.028855126 -0.053271256 -0.023769405 -0.05198804
0002e0 b7 ca 05 bd 13 7b e2 3c 5e 37 15 3d 66 0b 4a bd
       -0.032664027 0.027646577 0.036429755 -0.049327277
0002f0 7b 6e 2e 3d d4 37 4f bc 38 b5 49 3d 38 36 b1 bc
       0.04258583 -0.012647588 0.04924509 -0.021632299
000300 76 99 93 3d b2 c1 cf bc ea 6f c9 bc d9 ae 82 bd
       0.07207005 -0.025360916 -0.024589498 -0.06381006
000310 03 09 92 bc e7 a1 2f bd c6 68 65 bb 86 e4 00 bd
       -0.017826563 -0.04287901 -0.0035005077 -0.031467937
000320 d8 86 86 3d 19 7e 1f 3d 19 a2 5e bd 2b 1d 44 bd
       0.06568688 0.038938615 -0.054353807 -0.04787938
000330 9b 6a a6 bc f0 38 74 3d a5 ef 1a bd 8d b7 54 3d
       -0.020314505 0.059624612 -0.0378262 0.05193286
000340 85 cd b0 bc 2c 2a ab 3d bd 35 8c 3c ee 80 2e 3c
       -0.021582374 0.08357653 0.017115468 0.010650856
000350 83 d0 2c 3d e3 cf 51 3d 4e fb 39 bd 51 10 da 3c
       0.04219104 0.051223647 -0.04540568 0.026619108
000360 e4 da 49 3d ca 61 d6 bc 10 c2 8f 3c b1 04 94 bd
       0.049281016 -0.026169676 0.01754859 -0.07227457
000370 0d a0 64 bd 51 cf 6b 3d 23 80 8c 3c c2 37 8b 3c
       -0.0558167 0.05757076 0.017150944 0.01699436
000380 37 33 2c 3c f9 1d 98 ba 47 68 aa bd 02 0c cb 3c
       0.010510257 -0.0011605612 -0.083206706 0.024786
000390 d9 0e e6 bc 92 fc a8 bc 9f ee 48 3d 0a ce 89 3c
       -0.028083252 -0.020628247 0.04905569 0.01682188
0003a0 a6 d5 80 bc 2d 12 03 3d 50 24 7b bc c5 87 23 bd
       -0.015726876 0.031999756 -0.015328482 -0.0399244
0003b0 ec f5 99 3c 43 13 8f 3d 60 b1 f6 3c e8 2d 70 3d
       0.018794023 0.06986096 0.030113876 0.05863753
0003c0 2d d0 63 3d 06 05 20 3b 8b 5e a0 bd 8e 4f 95 bb
       0.055618454 0.0024417057 -0.07830533 -0.004556603
0003d0 49 40 30 3d 8d 21 68 bd 11 6e 0f bd 47 fe 74 3c
       0.043030057 -0.05667262 -0.035017077 0.014953203
0003e0 68 5c 01 3d 59 20 49 bd c8 33 44 3d a3 68 8d bd
       0.031582266 -0.049103115 0.047900945 -0.069047235
0003f0 7e ad b3 bc c3 e4 42 3c 3a 60 e3 bc 0a 0d 01 3d
       -0.021933313 0.011895361 -0.027755845 0.031506576

bias f4 [128]
000000 51 35 60 bd a9 1f 27 bd ad 64 a5 3c 57 a4 c5 ba
       -0.054738346 -0.040801678 0.020189608 -0.0015078884
000010 82 a1 f1 bc 23 5e fd 3b aa ef f6 bc ad 2b 0e bc
       -0.029495958 0.0077321692 -0.030143578 -0.008677405
000020 1e b1 e2 bc 8e d9 1f bd c5 ce 92 3d 1e e1 30 3d
       -0.027672347 -0.039025836 0.071683444 0.04318344
000030 7d fe 88 bd f8 ed 85 bc 6a 48 8e bd b3 25 76 bd
       -0.06689165 -0.016348824 -0.06947406 -0.060094547
000040 33 07 c7 3c c3 5f ae bc cc 2a e6 bc 7e f3 92 bd
       0.024295425 -0.021285897 -0.028096579 -0.07175349
000050 bd cd 2e 3c 46 23 07 bd 93 9d 8e bd 3f 7d e0 3c
       0.010669169 -0.032992624 -0.06963649 0.027403472
000060 87 96 91 bc 17 9f 2d bd 8f fc 81 3d 58 3e 77 3d
       -0.017771972 -0.042388048 0.06347 0.06036219
000070 76 b7 9b bc ab 77 87 3d 46 fe d2 bd ad 95 8a bc
       -0.01900838 0.06614622 -0.10302405 -0.016917074
000080 f9 2a 99 3c 34 e1 0b bc 42 16 ec bc 7c f9 39 3c
       0.018697249 -0.008537579 -0.028819207 0.011350986
000090 8b 4f d6 bb 2e 97 b7 bd 6d d8 37 bd 02 6c bc bc
       -0.006540244 -0.08964382 -0.044884134 -0.02300072
0000a0 a3 84 9d 3b fc d7 a0 3d 37 49 75 bc 54 25 84 bd
       0.0048070713 0.07853696 -0.014971069 -0.06452432
0000b0 10 09 64 3b 6f c1 14 3d 1b 8d 05 3d 99 91 02 bc
       0.003479544 0.036317285 0.03260527 -0.0079692835
0000c0 7a d5 8a bd d2 da b6 bd de 4f 40 3d 56 f4 52 3d
       -0.06778999 -0.089284554 0.046951167 0.05150255
0000d0 1e f1 ef 3c bd 2c 3a bd 4c 52 42 bd 9a 3e 5b bd
       0.029289778 -0.045452822 -0.047441766 -0.0535265
0000e0 ae be 04 3b 5c f6 d8 bb 8b 3d 44 bd 7b 56 1c bc
       0.0020255256 -0.006621165 -0.047910254 -0.009542103
0000f0 f4 cc 81 3d 8a cc 83 3d 26 89 b5 bc 8a af 8f bc
       0.0633792 0.06435497 -0.022160124 -0.017539758
000100 00 67 f3 bd 2c 52 bf 3c 4f f9 44 bc 34 0f 3c bd
       -0.1188488 0.023354612 -0.01202233 -0.045912936
000110 b4 cd c1 3d bf 1b 98 3c 91 9a 58 3d fb fd 84 bc
       0.09463063 0.018567918 0.05288178 -0.016234389
000120 de 08 ac 3b dc e5 bb bc 2c df da 3c 35 10 41 3d
       0.0052500805 -0.022936754 0.026717745 0.047134597
000130 6d 14 81 3d f0 63 8f bd c9 be 18 3c 81 d4 d7 3c
       0.06302724 -0.070014834 0.0093228305 0.026346447
000140 cb 58 a1 bd 71 26 58 3d f9 46 be bd c8 45 65 3d
       -0.07878264 0.052771036 -0.09290881 0.05597475
000150 bd b4 b9 3c 35 63 80 bd 2a 88 6b bd ae 37 16 3d
       0.02266919 -0.06268922 -0.057502903 0.036674194
000160 1a 75 f2 3c c6 3a df bb 0f 46 46 3d 1b 76 70 3d
       0.029596854 -0.0068124263 0.048406657 0.058706384
000170 48 1c 0d bd fd b5 03 bd 3e 80 77 bd 63 e0 1d 3c
       -0.0344508 -0.03215598 -0.060425036 0.0096360175
000180 ec 73 09 3d 16 9e 23 3d ce 1c 41 bd 8c 6a af bb
       0.033557817 0.039945684 -0.04714661 -0.0053532775
000190 98 9e 9a 3d 4b 2f 38 3d 69 37 df 3c 61 76 7a 3d
       0.075497806 0.044966977 0.027248101 0.06114805
0001a0 61 5a a6 3c cb 25 b2 bd 08 a4 5d 3c 27 2e 7c 3d
       0.020306768 -0.08698615 0.013527878 0.06156745
0001b0 be 96 73 3c 88 d7 02 bd ec a5 4e bc 1d ec 69 bd
       0.014867483 -0.031943828 -0.012612801 -0.05710994
0001c0 4c 61 58 bd 55 36 91 3d d4 12 1e 3d 74 7e 8e bd
       -0.052827165 0.07090441 0.038592175 -0.06957713
0001d0 04 d9 94 bd af 67 72 3c e1 66 fe bb 09 a7 57 3d
       -0.07267955 0.014795228 -0.007763729 0.05264953
0001e0 58 b1 d1 bb 3a 6f a9 bd b4 c9 67 3d af 3c f4 bc
       -0.006399315 -0.08273168 0.056588843 -0.029814092
0001f0 da 06 1f bc 33 dd 2f 3c 3d 7c bd 3b a1 32 98 3d
       -0.009706223 0.01073389 0.0057826326 0.07431532

weight f4 [12, 128]
000000 da db 4c bd 58 c7 42 3d f6 79 78 3d 32 45 1b 3d
       -0.050014354 0.04755339 0.060663186 0.037907787
000010 da 19 96 bc 19 e2 b9 bb d5 17 10 bd 5a 2a 7d 3c
       -0.018322874 -0.005672705 -0.035178978 0.015451992
000020 51 fc 1c bc 23 43 00 3d b5 bb 3b bb a4 17 9f bc
       -0.009581641 0.031314027 -0.0028645818 -0.019420452
000030 a2 3e 0a 3d 10 2c 83 3c f3 bf 4f bd 12 66 57 3c
       0.033751138 0.016012222 -0.050720166 0.013146894
000040 75 b7 2e 3d e6 91 48 bc dd 3b 04 3c 16 57 ae 3b
       0.042655427 -0.012241816 0.008070913 0.00532044
000050 09 f1 2e 3c aa 4f 42 3d f2 5f 3a 3d 98 68 95 ba
       0.010677584 0.047439255 0.045501657 -0.0011398969
000060 32 fc 10 bd ef 84 83 bd 6f fc 9a 3b fd 3d ef 3c
       -0.035396762 -0.064218394 0.0047297995 0.029204363
000070 30 3a 6b bd 26 ab 29 bb 62 68 34 bb db 76 6d bd
       -0.05742854 -0.0025889366 -0.0027528037 -0.057974678
000080 d0 c9 0a 3d 41 78 3b 3c 77 c7 3c 3d 1d 64 43 bb
       0.03388387 0.011442245 0.046088662 -0.002981431
000090 a6 0f 08 bc 4a 3c 03 bd fd 0c 9d 3b d2 a7 9b 3d
       -0.008304512 -0.032039918 0.004792808 0.076003686
0000a0 e1 94 ba 3b 9c 11 cf 3d ec cf 57 bc 07 06 47 bb
       0.0056940173 0.101107806 -0.013172131 -0.0030368583
0000b0 f2 75 37 3d 85 ab 89 3d 26 d8 a0 3d cd 82 7c bc
       0.044790216 0.06722168 0.07853727 -0.015412045
0000c0 90 11 56 3d 45 31 47 39 b2 af cd 3c e8 9c a1 3b
       0.052262843 0.00018996473 0.025108192 0.0049320348
0000d0 63 33 21 bc ef 88 00 bd 25 6b 4d bb 32 7a 57 bc
       -0.009838912 -0.03138059 -0.003134438 -0.013151692
0000e0 ef 50 60 3d 13 6d 87 3d 6c ed 53 3b d9 7a d6 3c
       0.054764684 0.06612601 0.003233756 0.026181625
0000f0 8f 51 1f bc d1 cf 52 bd 3e b2 1f bc f4 d2 21 bc
       -0.009724035 -0.05146772 -0.009747086 -0.009876955
000100 30 0c 3e 3c 53 3c 70 3c 7d d6 a5 3b b0 c4 73 3c
       0.011599585 0.01466282 0.0050609694 0.014878437
000110 80 d3 46 3d af b2 0a bc 70 c3 84 bb 1a 5a 2b 3d
       0.048541546 -0.008465453 -0.0040516183 0.041833974
000120 51 8d f7 3a 90 b3 4e 3d 8f 67 80 3d 73 6a ee 3c
       0.001888672 0.050464213 0.06269752 0.029103493
000130 b2 0c 3c bd 86 82 25 3d 59 b8 9e 3c 78 ff 49 bd
       -0.045910545 0.04040768 0.019375013 -0.0493159
000140 d1 e5 92 3c 7a 78 4a 3b d4 ae 09 bd 6d 04 1f bd
       0.01793185 0.0030894564 -0.033613995 -0.03882258
000150 17 83 42 bd 0f d3 a9 3c 01 2a d3 3b 66 71 a7 bc
       -0.0474883 0.020730523 0.0064442162 -0.020439815
000160 fc 54 4e bc 5e 7f 4d bb 10 ab 01 3d 61 bc 10 3d
       -0.012593504 -0.0031356434 0.03165728 0.035335902
000170 d9 75 06 3d 36 95 54 bd 8e 72 95 bd d9 e4 44 bd
       0.032827232 -0.05190011 -0.0729724 -0.04806981
000180 5b d5 ba 3c 55 df 07 3c 09 ed 71 3c 12 d7 2c bc
       0.022806814 0.008292993 0.014765986 -0.010549324
000190 bc 25 13 bd 81 2f 78 bd 04 16 f4 3c fa 0f bf 3c
       -0.03592466 -0.06059218 0.029795654 0.023323048
0001a0 22 b0 66 3c 38 08 f6 bb e2 46 17 bd 54 be 0f 3d
       0.014080079 -0.007508304 -0.036932833 0.03509362
0001b0 ae c1 71 bd 28 b2 ab 39 12 fd a1 ba b6 55 64 b8
       -0.059022598 0.00032748398 -0.0012358746 -5.443926e-05
0001c0 3d 43 15 bd 84 65 a1 bc 41 fb fa bc 0a 1a 49 bc
       -0.036441077 -0.019701727 -0.030637385 -0.012274275
0001d0 81 95 06 bd 74 38 84 bd 54 51 87 bd 0a 0e cf 3c
       -0.03285742 -0.0645608 -0.06607309 0.025275249
0001e0 96 0e d1 bc 7f de 98 bc ee 73 89 3c 80 e3 21 3d
       -0.02551965 -0.018660782 0.016778912 0.0395236
0001f0 fe ae df 37 fb bf 2d bd 8b aa 2b bd 96 19 26 bb
       2.6665159e-05 -0.042419415 -0.04191069 -0.002534484
000200 b3 b2 03 3d 46 5b d0 bc ea 57 8f 3d e7 32 76 bd
       0.032152843 -0.025434148 0.0699919 -0.060107138
000210 ce 40 81 3d 65 a2 da bc 77 46 36 3d b4 34 54 bb
       0.06311189 -0.026688764 0.044500794 -0.0032380046
000220 5f fe 00 3d d7 7b 64 bd e4 fc 94 bc 6d c4 2a 3b
       0.031492587 -0.055782165 -0.018186994 0.002605702
000230 78 20 a2 3d 94 5b a4 3d 41 0d 87 3d 9f 46 99 bd
       0.07916349 0.0802528 0.06594325 -0.07484173
000240 da 16 11 3d 09 42 5b 3d 7d 96 5c 3d be 81 ee bb
       0.035422184 0.053529773 0.053854454 -0.00727865
000250 00 03 7a 3d a0 28 17 bd 4a 71 2a 3d de ca b6 3c
       0.061038017 -0.036903977 0.041611947 0.022313531
000260 cb 58 fb bc d2 d8 ec 3c d1 12 32 bc eb 5c 97 bc
       -0.030681988 0.028911982 -0.010868744 -0.018476924
000270 46 17 6b bc 9f 58 87 3d d4 94 8d 3a 8d 8e 37 3d
       -0.014348811 0.066087 0.00108018 0.04481368
000280 72 29 72 bd cf f5 5b 3d d7 14 d1 bc 1b 5a 6b bd
       -0.059121557 0.05370122 -0.025522633 -0.05745898
000290 4f 22 af bb d6 e5 1d bb e8 5a eb bc e7 5f a0 3c
       -0.005344666 -0.0024093292 -0.02872987 0.01957698
0002a0 1b 02 87 bd 35 30 6e 3c 72 17 94 3c 85 b4 6f 3c
       -0.065921985 0.014537861 0.018077586 0.014630442
0002b0 c1 39 23 bd be 95 31 bd 9f 6d 7b 3d 48 36 58 3d
       -0.03985 -0.043355696 0.06138384 0.05278614
0002c0 57 ea 52 3d bb 11 5f 3d 08 00 1c 3d 8a ff a8 3d
       0.051493015 0.05446027 0.038085967 0.08251865
0002d0 7d 89 77 bd 0d ef 84 3d 2d 9b dd bc d4 f2 66 3d
       -0.060433853 0.06490908 -0.027051533 0.056383923
0002e0 1f 4e f0 bc 40 d5 a0 bc c0 01 1a bd 6b 88 8b bc
       -0.029334126 -0.019632936 -0.037599325 -0.017032823
0002f0 23 3c 2e bd 4b c0 67 bd c6 f2 4e 3b 26 8f de 3b
       -0.04253782 -0.05657987 0.003157781 0.006791967
000300 0e 18 43 3d 08 e7 39 3d 09 a6 3d bd b9 a4 4a 3d
       0.047630362 0.045386344 -0.04630092 0.049473498
000310 55 63 03 3d 4a 45 d8 3c 21 cc 63 bd eb 7b 5d 3d
       0.032077152 0.026400227 -0.055614594 0.054073256
000320 ce ca 2c bd 29 2e 2f 3d e0 9c 0a bd 44 cd 5c 3c
       -0.042185597 0.04276863 -0.033841014 0.0134766735
000330 3a 57 f0 3b ba fd 67 bd a7 6c 8f 3d ac b3 06 bd
       0.007334617 -0.056638457 0.07003146 -0.032886192
000340 7d 92 9a 3d 94 81 e6 3a be b3 52 3d 03 fc 65 3c
       0.07547472 0.0017586225 0.051440947 0.014037135
000350 f5 e0 a0 3d 27 23 e4 3c fc 0c fa 3c 2a af a0 bd
       0.07855407 0.027848793 0.03052377 -0.0784591
000360 a7 1a 02 bd 7d 45 90 3b 2e 4f a8 3d ee 57 5c bc
       -0.0317637 0.004402815 0.08218227 -0.013448698
000370 6a 4a 21 3d bc 81 85 3d c4 dc 0d bd a9 a1 9e 3d
       0.039377607 0.065188855 -0.034634367 0.07745678
000380 d6 d9 1d bd 79 df 9d bc 13 38 7c bd f9 f9 8e bd
       -0.038537823 -0.0192716 -0.061576914 -0.06981272
000390 f7 75 9b bc da 95 17 bd 66 e6 4e 3d ec ee 43 bd
       -0.018977148 -0.037008144 0.050512694 -0.047835276
0003a0 00 49 83 bd aa d0 7d bb d1 30 09 bc 8c 79 5c 3d
       -0.06410408 -0.003872911 -0.008373455 0.053826854
0003b0 13 14 43 bc 50 92 c1 bc 6b d3 0a 3d a3 4e 05 bc
       -0.011906642 -0.023629338 0.03389303 -0.008136424
0003c0 84 d8 8f bd bd 31 23 bd 54 79 3c 3d 01 4f 93 bd
       -0.07023719 -0.039842356 0.046014145 -0.07192803
0003d0 db 77 65 bd dc 3c 6d bc 9e dc 81 bd c6 57 00 3d
       -0.056022506 -0.014479842 -0.063409075 0.031333707
0003e0 d8 31 16 be d3 88 10 3c eb 67 dc ba 92 a5 01 bd
       -0.14667451 0.008821684 -0.0016815638 -0.03165204
0003f0 56 5d ab 3d cf b2 8e ba b0 f3 0a bd d7 30 4d bd
       0.08367412 -0.0010887029 -0.033923805 -0.050095405

bias f4 [12]
000000 e3 db 4c 3d ba 34 7b bd f3 7b 56 3d 19 cd cf 3c
       0.050014388 -0.06132958 0.0523643 0.025366353
000010 1c d2 d4 3c be bb 19 3c d1 f8 c3 3d 63 26 36 bd
       0.025979094 0.00938314 0.09568942 -0.044470202
000020 65 fe 17 3e af b5 d0 bd 02 fc 75 3d ca 8c 1b 3e
       0.14843138 -0.101909034 0.060054787 0.15190426
