deploy/exported_policy/go1/policy_42_discrete.pt (torch, 762376 bytes, 8 tensors)

weight f4 [512, 42]
-0.24502943 -0.01700729 0.07415592 -0.0010726948 0.030618804 0.05523133 -0.055836685 -0.21869768
0.214077 -0.27129632 -0.0024379957 0.12054869 0.2001251 0.23387265 0.028576177 0.14837188
0.077246316 -0.13910604 -0.02385598 0.012753594 0.11563208 -0.06444746 0.04566772 0.18611889
0.101520255 0.14557809 -0.031648897 0.05223774 -0.15014286 -0.013859225 0.032865096 -0.03437518
0.09464725 -0.10944184 -0.058943123 0.09170535 -0.03339427 0.04159804 0.014816177 0.07974831
0.0006459093 -0.039901707 0.016206631 0.04350166 -0.119660646 0.04329057 0.046778116 -0.121708654
-0.1780602 -0.053226285 -0.006736026 -0.264866 0.3446234 -0.2360156 0.38076705 -0.014726857
0.1433519 0.105673656 -0.16795792 -0.17143932 0.00021087356 -0.07902363 -0.075846724 -0.05842422
-0.08537385 0.18120189 -0.13094372 -0.055973962 0.085768834 0.0939299 -0.12530592 -0.1083567
0.040480424 0.085449584 -0.06008838 0.098626815 -0.063795805 0.09015927 0.08298035 -0.09549456
0.056151446 -0.044473995 -0.024159454 0.014397134 -0.14523213 0.014289337 0.095744036 -0.0081876535
0.0784617 -0.10294448 0.012978929 -0.112582184 -0.12907428 -0.20372319 -0.025879424 0.02410309
-0.26752025 0.09645062 -0.14232476 0.24109215 -0.25569278 -0.028372679 -0.035959125 -0.15139106
0.1614971 -0.07696639 -0.0025798935 -0.09012304 0.07597953 0.10038577 0.15708111 0.15505858
-0.09309619 -0.21101472 -0.04177482 -0.09671811 0.0107587995 -0.125019 -0.0033851222 0.09411697
-0.04730256 0.009456727 0.11511533 -0.08427983 -0.12792875 0.053589616 0.023481207 0.018493464
-0.06823344 0.0031592536 0.029463394 -0.07843535 -0.002676968 -0.07844709 0.12712042 -0.06843949
0.24202736 0.28307408 0.0044109193 -0.057327125 -0.13077447 -0.016375914 -0.15732342 -0.15117328
-0.15167712 -0.07761007 -0.027019767 0.046100248 -0.08631935 0.00053569744 0.06625161 -0.0819881
-0.0023252645 0.05810504 -0.12600537 0.085078664 0.016675288 -0.09120325 0.024463527 -0.07972677
-0.024267025 -0.070468515 -0.14430144 0.041275527 0.057631593 0.020582164 -0.11549366 0.098461576
-0.08739421 -0.11781548 -0.11206621 0.0064807865 -0.08864641 -0.02747139 -0.26824507 -0.029259285
-0.16821885 -0.37051687 -0.3127371 0.016917061 0.30402297 -0.12941054 -0.15618297 0.29049608
0.035325207 -0.057725843 -0.04355998 0.072100244 -0.1313012 -0.014137892 -0.2794093 -0.14171724
0.14583136 -0.10211461 0.02621181 -0.0060445652 -0.04656103 0.04130795 -0.018864721 0.06517865
0.008948088 -0.047790322 -0.02954038 -0.07806175 0.050844725 0.028993702 -0.047618523 -0.04074474
0.06722441 0.010378757 -0.010360067 -0.14543158 0.12192436 0.061323076 0.038462974 0.11160825
0.008972745 0.2101698 -0.23846765 -0.14072907 -0.08356663 -0.09157207 0.23886113 -0.088991374
0.035152797 0.15852782 -0.1260352 0.1845097 -0.015535822 0.1497179 -0.017169053 -0.08347934
-0.11936657 0.097015 -0.08880308 -0.03437824 -0.14373608 0.13010404 0.042003 -0.07320208
0.01316475 -0.12892461 0.06235143 -0.03509532 0.06597448 -0.11764628 -0.042953845 0.104183346
0.041807108 -0.0059004463 -0.12911096 -0.12764725 0.072521314 -0.046217967 0.055015605 0.05305178
00000000: ffe8 7abe df52 8bbc 0fdf 973d aa99 8cba
00000010: 49d4 fa3c 3f3a 623d 02b5 64bd 49f2 5fbe
00000020: 0037 5b3e 5ae7 8abe c8c6 1fbb 3be2 f63d
00000030: 98ed 4c3e 507c 6f3e 9618 ea3c ccee 173e
00000040: 5133 9e3d d071 0ebe 9e6d c3bc 73f4 503c
00000050: 83d0 ec3d 08fd 83bd 130e 3b3d f395 3e3e
00000060: dae9 cf3d 6c12 153e 46a2 01bd 3ef7 553d
00000070: 0dbf 19be ce11 63bc 8d9d 063d fdcc 0cbd
00000080: 6bd6 c13d 0b23 e0bd 586e 71bd 04d0 bb3d
00000090: 6ec8 08bd b562 2a3d 8dbf 723c 1553 a33d
000000a0: 3d52 293a f96f 23bd c5c3 843c cc2e 323d
000000b0: a410 f5bd 7451 313d 699a 3f3d 6342 f9bd
000000c0: 6a55 36be ce03 5abd e2b9 dcbb 849c 87be
000000d0: 7a72 b03e 13ae 71be e6f3 c23e ea48 71bc
000000e0: d7ca 123e 6e6b d83d 29fd 2bbe ca8d 2fbe
000000f0: f11d 5d39 24d7 a1bd 8755 9bbd 3c4e 6fbd
00000100: 7cd8 aebd fd8c 393e 1c16 06be f444 65bd
00000110: 92a7 af3d 525e c03d 3250 00be 1eea ddbd
00000120: cdce 253d 3100 af3d 3c1f 76bd dbfc c93d
00000130: 60a7 82bd 6ca5 b83d 9af1 a93d a792 c3bd
00000140: 0fff 653d 5d2a 36bd 0cea c5bc f5e1 6b3c
00000150: bbb7 14be d31d 6a3c 7315 c43d 8225 06bc
00000160: 87b0 a03d 8ed4 d2bd 93a5 543c 7d91 e6bd
00000170: 0c2c 04be d09c 50be 1601 d4bc d873 c53c
00000180: 6af8 88be e787 c53d 95bd 11be dce0 763e
00000190: 2aea 82be d26d e8bc e049 13bd 4206 1bbe
000001a0: 7f5f 253e 8ea0 9dbd 6e13 29bb 6e92 b8bd
000001b0: 289b 9b3d 0e97 cd3d dfd9 203e adc7 1e3e
000001c0: 37a9 bebd 3e14 58be 131c 2bbd 2514 c6bd
000001d0: ad45 303c fb04 00be edd8 5dbb 66c0 c03d
000001e0: 54c0 41bd 63f0 1a3c 96c1 eb3d e79a acbd
000001f0: c1ff 02be c980 5b3d a95b c03c 9b7f 973c
00000200: f9bd 8bbd 7b0b 4f3b 375d f13c b6a2 a0bd
00000210: 1270 2fbb dea8 a0bd db2b 023e 012a 8cbd
00000220: 05d6 773e 16ef 903e 7989 903b d9cf 6abd
00000230: bee9 05be c826 86bc 6419 21be 2bcd 1abe
00000240: 3f51 1bbe 07f2 9ebd 8f58 ddbc 9dd3 3c3d
00000250: 33c8 b0bd 0c6e 0c3a edae 873d 61e9 a7bd
00000260: 7763 18bb 8dff 6d3d 8d07 01be b93d ae3d
00000270: 9d9a 883c c5c8 babd bc67 c83c ca47 a3bd
00000280: a4cb c6bc cc51 90bd c2c3 13be 8710 293d
00000290: 1b0f 6c3d ed9b a83c f187 ecbd 39a6 c93d
000002a0: bcfb b2bd 3e49 f1bd f882 e5bd c75c d43b
000002b0: 408c b5bd ae0b e1bc 6b57 89be 2bb1 efbc
000002c0: 9041 2cbe 63b4 bdbe 141f a0be a695 8a3c
000002d0: e6a8 9b3e 3284 04be 6eee 1fbe e7bb 943e
000002e0: 2ab1 103d ef71 6cbd f36b 32bd 4ba9 933d
000002f0: d273 06be 9ea2 67bc bc0e 8fbe 531e 11be
00000300: d154 153e 7721 d1bd 26ba d63c 7d11 c6bb
00000310: c7b6 3ebd 8632 293d 308a 9abc 627c 853d
00000320: 009b 123c c9bf 43bd abfe f1bc d7de 9fbd
00000330: 8f42 503d 3384 ed3c a40b 43bd f5e3 26bd
00000340: f4ac 893d a90b 2a3c 45bd 29bc 04ec 14be
00000350: 7bb3 f93d e82d 7b3d 5a8b 1d3d de92 e43d
00000360: 6c02 133c c136 573e dd30 74be 481b 10be
00000370: fb24 abbd 238a bbbd 0398 743e 1c41 b6bd
00000380: 61fc 0f3d 1e55 223e 5f0f 01be 1cf0 3c3e
00000390: f689 7ebc a64f 193e 1da6 8cbc 37f7 aabd
000003a0: 7676 f4bd cdaf c63d 64de b5bd 33d0 0cbd
000003b0: 8d2f 13be fe39 053e 560b 2c3d f9ea 95bd
000003c0: f7b0 573c d004 04be 3764 7f3d 1cc0 0fbd
000003d0: a11d 873d 88f0 f0bd 5ff0 2fbd 145e d53d
000003e0: ee3d 2b3d 8858 c1bb aa35 04be f6b5 02be
000003f0: 0e86 943d 0d4f 3dbd 0b58 613d d34c 593d

bias f4 [512]
0.06907326 -0.15801394 -0.011389785 -0.018442115 -0.08348136 0.06570854 -0.07525478 0.13646282
0.07248917 -0.03337073 -0.010069586 0.03882965 0.021509038 0.028381063 0.07281445 -0.11167199
-0.02476528 -0.0020405147 -0.039976425 0.012638411 -0.07373796 0.0048662294 -0.08255235 -0.09960763
0.13419907 0.08484587 -0.13803294 -0.029963333 0.060843218 -0.07630064 -0.074024506 0.10229582
-0.05902477 0.00076603494 0.06968285 -0.03461632 -0.014837305 -0.008244176 -0.08096222 0.03876565
-0.046910316 0.035065625 0.12898074 0.061502606 -0.017800791 0.031981453 -0.02611321 0.10985052
-0.010992462 0.03573481 -0.07696573 -0.045584194 0.008308256 0.033564135 0.042428553 -0.073882505
0.051685523 -0.011699114 0.1097104 0.10900537 0.05743728 0.06989488 -0.045818638 -0.06743128
-0.070249684 -0.11755505 0.038487792 -0.028433882 0.0579552 0.02021247 -0.12499093 0.08741989
0.088975474 -0.09464207 0.0066632503 -0.08996156 0.023956023 0.0538207 0.032829866 0.03256547
-0.09250308 0.07564338 0.044345066 0.022113018 0.029196741 -0.052351903 -0.10903961 -0.032222148
-0.035446294 -0.10741619 -0.120983265 0.00018042355 0.06747562 0.009055829 -0.15122278 -0.13072674
-0.16366872 -0.009333007 0.024863841 0.10478648 -0.05222274 -0.108608864 0.07619847 -0.08736243
0.072478175 0.12234477 -0.069170974 -0.08455789 -0.12120946 -0.09337923 0.114175454 -0.057813376
0.07604904 0.14120837 -0.041409276 0.009883468 -0.12513149 0.0023492428 0.060221434 -0.074145846
-0.004375219 -0.034065697 0.15414831 -0.02917972 0.026233174 -0.062925115 -0.026897505 -0.048950553
0.010456987 -0.09665541 0.04279368 -0.07869277 -0.015872436 -0.121670425 -0.049079977 -0.058850322
0.07705432 -0.034778308 -0.092645384 -0.026042663 -0.065903984 -0.062211987 0.09638106 -0.13210951
-0.057984397 -0.09080648 -0.036330484 0.058505658 -0.13260224 -0.1291139 -0.08321588 -0.06592123
0.122364834 -0.051238507 0.087165155 0.016817003 0.052842516 0.1317557 -0.048109215 -0.12028741
0.06286255 -0.12480768 -0.025342466 -0.07075029 0.091451965 -0.056752384 -0.10665596 0.08584997
0.053879686 -0.07615739 0.0042488445 -0.0036576407 -0.10653387 -0.018300043 0.038192406 -0.07135363
0.0247624 0.122265466 0.045750115 0.119620025 -0.0454094 0.029356712 -0.102858394 0.14833716
0.041760083 0.0011776245 0.055651087 -0.12739179 -0.09508932 -0.08398441 -0.12214457 0.03431893
0.03755504 -0.086391926 0.08939024 0.023603275 0.055460524 0.092639394 0.06575561 0.14456937
0.037086774 0.018974466 0.055238884 -0.014749355 -0.10764024 0.117804326 0.051521238 0.10230441
0.13064142 0.010226059 -0.039627858 0.026453244 -0.11124453 0.072595805 0.15034762 0.050027892
-0.08797158 0.11101347 -0.029137002 0.0086392425 0.06812185 0.12739488 -0.026353767 0.0056847744
-0.115543075 -0.037748042 -0.02609484 -0.040869895 0.066549264 0.0878121 0.05453088 -0.044592068
-0.13328767 -0.044448003 0.005947023 0.06760165 -0.042782377 -0.046736576 0.030376816 -0.011171337
0.053644374 0.10568972 0.14818397 0.04267094 -0.021525444 0.068739444 -0.046732698 0.07374552
-0.106980555 0.07088005 -0.08002752 -0.123862915 -0.014810233 -0.113921426 -0.08061323 -0.05118865
00000000: 4876 8d3d 68ce 21be 399c 3abc eb13 97bc
00000010: 46f8 aabd 3392 863d 2e1f 9abd e9bc 0b3e
00000020: 3475 943d bfaf 08bd e8fa 24bc d70b 1f3d
00000030: b933 b03c 677f e83c be1f 953d 49b4 e4bd
00000040: 8ee0 cabc 28ba 05bb 52be 23bd 5611 4f3c
00000050: ed03 97bd e474 9f3b 3511 a9bd 16ff cbbd
00000060: 7b6b 093e acc3 ad3d 8258 0dbe aa75 f5bc
00000070: bd36 793d 8343 9cbd 299a 97bd 7980 d13d
00000080: f5c3 71bd bccf 483a e2b5 8e3d d8c9 0dbd
00000090: 2b18 73bc 9512 07bc 85cf a5bd bbc8 1e3d
000000a0: 0825 40bd f9a0 0f3d 8713 043e 28ea 7b3d
000000b0: f7d2 91bc fcfe 023d 5feb d5bc 4ff9 e03d
000000c0: ba19 34bc aa5e 123d 35a0 9dbd 7eb6 3abd
000000d0: 5a1f 083c 8c7a 093d 90c9 2d3d b64f 97bd
000000e0: 33b4 533d a4ad 3fbc d9af e03d 353e df3d
000000f0: 5a43 6b3d 0c25 8f3d 53ac 3bbd 6919 8abd
00000100: 11df 8fbd b4c0 f0bd 60a5 1d3d 2cee e8bc
00000110: 6f62 6d3d 9f94 a53c 3ffb ffbd 3309 b33d
00000120: c638 b63d b4d3 c1bd 6557 da3b c43d b8bd
00000130: 6c3f c43c 1873 5c3d 9c78 063d 5f63 053d
00000140: 4172 bdbd ebea 9a3d 2ca3 353d 5c26 b53c
00000150: 012e ef3c f36e 56bd 2950 dfbd 5ffb 03bd
00000160: 2230 11bd 05fd dbbd 13c6 f7bd 1430 3d39
00000170: a830 8a3d e65e 143c 25da 1abe 3bdd 05be
00000180: c698 27be 78e9 18bc 41af cb3c 4b9a d63d
00000190: 83e7 55bd 536e debd f20d 9c3d 13eb b2bd
000001a0: 706f 943d e58f fa3d 83a9 8dbd b02c adbd
000001b0: aa3c f8bd 9c3d bfbd d2d4 e93d b8cd 6cbd
000001c0: 99bf 9b3d ed98 103e c69c 29bd 45ee 213c
000001d0: 7822 00be c1f5 193b c0aa 763d c7d9 97bd
000001e0: ff5d 8fbb 7988 0bbd 0ed9 1d3e 4f0a efbc
000001f0: f4e6 d63c e2de 80bd 2858 dcbc 6080 48bd
00000200: c853 2b3c 46f3 c5bd 6d48 2f3d ad29 a1bd
00000210: e906 82bc 582e f9bd 1608 49bd 090d 71bd
00000220: a8ce 9d3d b373 0ebd ddbc bdbd 6c57 d5bc
00000230: abf8 86bd ffd1 7ebd 6f63 c53d b747 07be
00000240: 0c81 6dbd bff8 b9bd 46cf 14bd a1a3 6f3d
00000250: e2c8 07be 6f36 04be 166d aabd b601 87bd
00000260: 6a9a fa3d 78df 51bd a583 b23d d0c3 893c
00000270: 6571 583d f7ea 063e 2b0e 45bd 3f59 f6bd
00000280: 15be 803d 2b9b ffbd 019b cfbc 87e5 90bd
00000290: 2b4b bb3d 3075 68bd 716e dabd 1cd2 af3d
000002a0: f2b0 5c3d 68f8 9bbd e439 8b3b 07b5 6fbb
000002b0: 6e2e dabd f9e9 95bc a46f 1c3d da21 92bd
000002c0: 84da ca3c 5166 fa3d 7964 3b3d 58fb f43d
000002d0: 35ff 39bd 7d7d f03c 6ca7 d2bd b2e5 173e
000002e0: 9f0c 2b3d 855a 9a3a 65f2 633d fe72 02be
000002f0: 30be c2bd 0500 acbd ef26 fabd 0292 0c3d
00000300: 50d3 193d 40ee b0bd 3b12 b73d a85b c13c
00000310: 932a 633d b9b9 bd3d e1aa 863d fe09 143e
00000320: 4de8 173d 5770 9b3c 2b42 623d 47a7 71bc
00000330: 7c72 dcbd 6543 f13d ef07 533d f984 d13d
00000340: ddc6 053e 338b 273c d250 22bd 79b4 d83c
00000350: 2cd4 e3bd 1cad 943d baf4 193e 0cea 4c3d
00000360: 722a b4bd 085b e33d b9b0 eebc 9c8b 0d3c
00000370: 7883 8b3d ce73 023e dbe3 d7bc 5847 ba3b
00000380: d9a1 ecbd b19d 1abd d9c4 d5bc 3167 27bd
00000390: fb4a 883d d5d6 b33d c65b 5f3d 2ca6 36bd
000003a0: 907c 08be 1c0f 36bd 3fdf c23b bc72 8a3d
000003b0: 933c 2fbd da6e 3fbd cdd8 f83c fc07 37bc
000003c0: 34ba 5b3d da73 d83d 8abd 173e b9c7 2e3d
000003d0: 2156 b0bc 44c7 8c3d c96a 3fbd e407 973d
000003e0: 9f18 dbbd 8f29 913d 78e5 a3bd d7ab fdbd
000003f0: 9fa6 72bc a34f e9bd 8d18 a5bd 31ab 51bd

weight f4 [256, 512]
-0.037256233 0.024020255 -0.049932294 -0.05819568 0.027694264 -0.0019015683 0.033037305 -0.01704677
-0.011000191 0.048531346 -0.039566565 0.030651627 0.014871187 0.031071112 -0.037865553 0.061371718
0.01651575 0.040046617 0.02391857 -0.05185244 -0.008746804 -0.039518747 -0.0003897716 -0.005623271
0.035573352 0.0066652247 -0.015207644 0.0133422855 -0.009455718 0.04062641 0.031174997 0.044414006
0.057804503 -0.017577255 -0.03616055 -0.0399919 -0.041431516 0.013292692 -0.020090077 -0.030711792
0.027332822 0.015135255 -0.0030213112 0.016606135 -0.0061000697 -0.043900747 -0.023043565 -0.030665023
-0.045921404 0.016832301 -0.019834477 0.050877057 -0.05821006 0.027603399 -0.03957975 -0.024337271
-0.026128335 0.042753562 0.0351503 0.009003369 -0.004028417 -0.0052853604 -0.05934369 0.02876154
0.033097107 0.03519475 -0.036185518 0.002035867 0.006995018 0.005582183 -0.023220034 -0.023221986
0.008808241 -0.012258799 -0.024959786 0.023529943 -0.039098118 -0.05901876 0.017082982 -0.060104016
-0.035893813 0.01802901 0.019462133 -0.021078702 -0.04381828 -0.029599087 -0.07166936 0.020390894
0.07656633 0.066958606 -0.048745457 0.023667265 -0.059188675 -0.042075686 -0.047437444 0.0054872003
-0.00975451 0.031135293 -0.003814744 0.018764006 0.0101163555 -0.01450106 -0.0026128653 -0.0015608225
0.051206864 0.031026175 0.04521488 -0.015006102 0.043880474 0.026230782 0.012362527 0.0114834905
0.017311785 0.008055064 0.04503634 -0.019389283 0.028642017 0.031466994 0.0053795166 0.012894766
-0.02732344 0.022896416 -0.025565496 0.024611738 -0.0019316091 0.010528637 -0.008092747 0.042606276
0.043731816 -0.020764114 0.05819522 -0.019829687 0.014817026 0.07372187 -0.021459732 0.05226845
0.009823324 -0.009093173 -0.049411025 -0.07805628 -0.0035490203 0.059345376 -0.041250486 0.0046538105
0.02351262 -0.07763073 -0.01756358 -0.011607074 -0.035823885 -0.0020119103 0.009123362 0.034767017
-0.089595355 -0.017249465 -0.010682158 0.024680663 -0.021698963 -0.047951024 -0.0066047893 -0.03130812
-0.021204725 0.0009765366 -0.011338689 0.006722002 -0.02231327 -0.063183114 -0.029458445 0.024411391
-0.009530526 -0.051585514 -0.02725907 -0.044202987 0.017276542 -0.012973604 0.08813483 -0.054129906
0.022588514 -0.020367188 0.03339853 0.0077537154 -0.054682426 -0.053117566 -0.024975026 -0.040131908
-0.018499088 -0.016664866 0.02129345 0.006070303 0.018139113 -0.0065250224 -0.0136614 -0.013306884
-0.08480399 -0.040417094 -0.016307134 0.00746863 -0.006696914 -0.0123621505 0.0037786392 0.015544925
0.004129192 0.04620019 0.028918164 -0.0313973 0.01915694 -0.06388501 0.022377806 -0.041532304
0.042807553 0.05037781 -0.017614614 0.014719914 0.03647417 0.012843461 0.00906636 0.037429947
-0.035537034 -0.05120388 -0.026751835 0.0056433915 0.03910944 -0.03625553 -0.04897578 -0.076063596
-0.060233682 0.04400139 0.019464314 -0.025824802 -0.029740047 -0.027027499 -0.031605802 0.0651467
-0.036876675 -0.03262093 0.07481246 -0.0033506663 0.041404318 0.020806205 0.028981194 0.026133053
0.031291477 0.00033531417 0.031608924 0.009515241 -0.041864987 -0.011111051 0.015406979 -0.015216525
-0.03016349 0.06410523 -0.05321554 0.026630655 0.0127281565 0.010857072 -0.010183649 -0.0430607
00000000: fe99 18bd 20c6 c43c ce85 4cbd 985e 6ebd
00000010: 15df e23c 0b3e f9ba 2052 073d aba5 8bbc
00000020: 253a 34bc cec8 463d 8d10 22bd 1f19 fb3c
00000030: 47a6 733c d888 fe3c e918 1bbd e960 7b3d
00000040: 0a4c 873c ec07 243d e0f0 c33c 3963 54bd
00000050: c14e 0fbc 69de 21bd 425a ccb9 6b43 b8bb
00000060: 5db5 113d f567 da3b 7b29 79bc 9a99 5a3c
00000070: 28ec 1abc e167 263d b562 ff3c 76eb 353d
00000080: 6ac4 6c3d 2dfe 8fbc 161d 14bd 8cce 23bd
00000090: 18b4 29bd 97c9 593c f293 a4bc 4c97 fbbc
000000a0: 15e9 df3c dcf9 773c 3101 46bb 9709 883c
000000b0: 18e3 c7bb 45d1 33bd dcc5 bcbc 3735 fbbc
000000c0: 1518 3cbd e5e3 893c ea7b a2bc 7664 503d
000000d0: ac6d 6ebd 8620 e23c 601e 22bd f55e c7bc
000000e0: 170b d6bc 5c1e 2f3d c3f9 0f3d de82 133c
000000f0: d000 84bb d130 adbb 5e12 73bd 529d eb3c
00000100: d590 073d 5f28 103d 4437 14bd 2e6c 053b
00000110: 7736 e53b bfea b63b f137 bebc 093c bebc
00000120: 7150 103c 21d9 48bc 7778 ccbc dec1 c03c
00000130: 5925 20bd a8bd 71bd 9cf1 8b3c a12f 76bd
00000140: 6405 13bd 93b1 933c 0d6f 9f3c 3ead acbc
00000150: cc7a 33bd c979 f2bc 63c7 92bd ce0a a73c
00000160: cfce 9c3d 9821 893d 51a9 47bd dae1 c13c
00000170: d36f 72bd 8e57 2cbd c44d 42bd f9cd b33b
00000180: 61d1 1fbc 710f ff3c c900 7abb f9b6 993c
00000190: 12bf 253c db95 6dbc 9b3c 2bbb 8394 ccba
000001a0: 4abe 513d 9b2a fe3c 3d33 393d 27dc 75bc
000001b0: 03bc 333d f0e1 d63c 328c 4a3c 4025 3c3c
000001c0: 72d1 8d3c 63f9 033c 0678 383d 46d6 9ebc
000001d0: aaa2 ea3c 89e3 003d a846 b03b 9244 533c
000001e0: 68d5 dfbc 4491 bb3c bb6e d1bc 8e9e c93c
000001f0: 0c2e fdba 4e80 2c3c 7197 04bc eb83 2e3d
00000200: 2220 333d 8119 aabc 1c5e 6e3d de71 a2bc
00000210: 1dc3 723c 7efb 963d 52cc afbc 7117 563d
00000220: 02f2 203c 88fb 14bc 3763 4abd f9db 9fbd
00000230: ae96 68bb 2314 733d 45f6 28bd fe7e 983b
00000240: 8a9d c03c dcfc 9ebd 7fe1 8fbc 992b 3ebc
00000250: 11bc 12bd 41da 03bb 277a 153c dc67 0e3d
00000260: c57d b7bd c04e 8dbc 3804 2fbc 1a2f ca3c
00000270: 06c2 b1bc 4b68 44bd fd6c d8bb f13c 00bd
00000280: 88b5 adbc 43fe 7f3a e9c5 39bc 3d44 dc3b
00000290: 52ca b6bc 2666 81bd d652 f1bc 66fa c73c
000002a0: ec25 1cbc 554b 53bd 6a4e dfbc 310e 35bd
000002b0: 8987 8d3c 3d8f 54bc 0980 b43d 52b7 5dbd
000002c0: 8c0b b93c 17d9 a6bc e6cc 083d e112 fe3b
000002d0: aefa 5fbd ce91 59bd 6d98 ccbc 5b61 24bd
000002e0: 668b 97bc c284 88bc 9a6f ae3c 64e9 c63b
000002f0: 7a98 943c dbcf d5bb 11d4 5fbc 1e05 5abc
00000300: b7ad adbd 658c 25bd 8a96 85bc 69bb f43b
00000310: c971 dbbb 9e8a 4abc 0ca3 773b 24b0 7e3c
00000320: 2c4e 873b 693c 3d3d c9e5 ec3c 759a 00bd
00000330: 04ef 9c3c 25d6 82bd a951 b73c c71d 2abd
00000340: f956 2f3d f658 4e3d 864c 90bc cb2b 713c
00000350: f065 153d 616d 523c 128b 143c 2550 193d
00000360: 488f 11bd 29bb 51bd aa26 dbbc 33ec b83b
00000370: 3831 203d ae80 14bd d49a 48bd 3bc7 9bbd
00000380: 98b7 76bd cd3a 343d a073 9f3c 898e d3bc
00000390: 66a1 f3bc c668 ddbc 1675 01bd a26b 853d
000003a0: ff0b 17bd 869d 05bd 4637 993d da96 5bbb
000003b0: 9397 293d c671 aa3c f869 ed3c fc14 d63c
000003c0: 7e2b 003d 1bcd af39 5c78 013d d0e5 1b3c
000003d0: 9f7a 2bbd 200b 36bc 8e6d 7c3c bb4e 79bc
000003e0: 6c19 f7bc 9a49 833d 8af8 59bd 8828 da3c
000003f0: c289 503c dce1 313c 52d9 26bc 6b60 30bd

bias f4 [256]
0.025659569 -0.0134380255 0.008473919 -0.02232186 0.0019694483 -0.018516215 0.017524252 0.024709474
-0.029712059 -0.014142489 0.0019526747 0.017218309 0.005512058 -0.026026519 0.046820685 0.004932484
0.040443026 0.03806764 -0.0061503826 -0.0049544265 0.020185854 -0.010252802 0.036525592 0.02885443
0.032380972 -0.04879841 -0.027178625 -0.017493514 0.010595206 -0.011616368 0.027158163 -0.01431869
-0.056012627 0.03765554 -0.005896712 -0.036243454 0.02077041 0.035305813 -0.06405299 -0.016408663
-0.013935719 -0.031479307 -0.008941435 0.0073207333 -0.026202498 0.027933145 -0.023555689 0.016640501
-0.026974874 -0.0025668566 -0.028577536 0.015671508 -0.039641526 -0.037875738 -0.034284413 0.0013403163
-0.017528763 -0.017691953 -0.03956552 0.013231658 -0.028224481 0.029560337 0.03211303 0.026146242
-0.006869942 -0.03803432 -0.033249203 0.008991079 -0.015378788 -0.03075753 -0.013853593 0.032370917
-0.054119006 0.02906723 -0.010446743 -0.024584701 0.016227994 -0.008371082 -0.040354975 -0.025945798
-0.0045374185 -0.057775646 -0.010053386 0.0434698 -0.044289906 0.0037875078 -0.022542302 -0.0018085683
-0.006168863 -0.027265513 -0.01380781 -0.018721674 0.033828814 0.014269108 -0.023868782 0.038362585
-0.010453308 0.04253672 -0.012587874 0.01179974 0.010723681 -0.0141803045 -0.01704066 -0.01743286
-0.01706931 0.0023101452 0.01670977 -0.01565092 -0.019828888 -0.0027597395 0.008783401 -0.021531917
-0.075526744 -0.035230864 0.04888379 0.02793491 -0.032893836 0.04430737 -0.0062939925 0.011110793
-0.023252875 0.03580359 -0.009455876 -0.019690046 -0.011462427 -0.00096558704 -0.0022622738 0.0014037582
-0.03354857 -0.008977816 -0.023185538 -0.0006910124 -0.010751902 -0.03713261 -0.031542394 0.03590327
-0.01626668 -0.0210791 0.036857832 -0.027184142 -0.022650607 0.0076992153 0.014213565 0.028539032
0.0123539725 -0.03189777 0.043033563 -0.012032149 0.0231005 -0.010712213 0.021048408 0.00074132305
0.035388507 -0.018250706 0.0013893797 -0.0043971753 -0.021623034 0.011260732 -0.035284113 0.017409915
-0.040218037 -0.014904933 -0.0012991852 -0.031440943 -0.012383647 0.008328012 0.036879797 0.0035868213
-0.028833654 0.015692493 -0.011199181 -0.030999249 -0.042835288 -0.0391044 0.00388404 0.011858677
-0.04846812 0.011141498 0.007711438 0.0015697862 0.02980016 0.011047105 0.023558062 -0.004061261
0.030218102 0.0026713046 0.009204475 -0.0021365245 0.02151553 -0.0010861342 0.02610128 -0.033136286
-0.04634242 0.01751923 -0.012918842 0.015961563 -0.059980605 0.013817686 -0.016554385 0.0368974
-0.04788082 -0.0028620379 0.009971347 -0.00090246764 0.041425273 -0.06037151 0.007299218 0.0022285506
0.010363408 -0.050886504 0.0061674966 -0.0019833215 -0.04212468 -0.0027901363 0.023995278 -0.022848943
0.016604926 -0.051697157 0.013383995 -0.01187373 0.0073679374 -0.0009160661 -0.0237038 -0.011919651
0.0057091154 0.029067907 -0.02618081 -0.02112437 0.01825606 -0.041093513 0.022847699 -0.08356154
0.019788058 0.035849582 0.0018416014 -0.013001447 0.019951059 0.040790033 0.009614168 0.018565593
0.039003547 0.03174725 -0.008554042 -0.020133456 -0.023586018 0.016943399 0.0023386597 -0.033052567
0.045607768 -0.03705276 -0.009659396 0.026851004 -0.030506045 -0.03424911 0.0429802 0.038771544
00000000: 0434 d23c 2a2b 5cbc 31d6 0a3c 55dc b6bc
00000010: dc11 013b 51af 97bc 058f 8f3c 866b ca3c
00000020: b466 f3bc e6b5 67bc e4f0 ff3a 690d 8d3c
00000030: 7e9e b43b 9135 d5bc 0cc7 3f3d ada0 a13b
00000040: 96a7 253d d0ec 1b3d 2689 c9bb be58 a2bb
00000050: ce5c a53c 5efb 27bc dc9b 153d 2060 ec3c
00000060: e9a1 043d d7e0 47bd b5a5 debc 8f4e 8fbc
00000070: 8497 2d3c 9452 3ebc cc7a de3c f098 6abc
00000080: 7f6d 65bd b23c 1a3d 3539 c1bb 0474 14bd
00000090: b526 aa3c d49c 103d 372e 83bd 766b 86bc
000000a0: a452 64bc 72f0 00bd 197f 12bc c3e2 ef3b
000000b0: 9fa6 d6bc 0dd4 e43c dcf7 c0bc a951 883c
000000c0: 69fa dcbc b538 28bb 701b eabc 8961 803c
000000d0: 275f 22bd 9723 1bbd d06d 0cbd 8dad af3a
000000e0: 7b98 8fbc b7ee 90bc 740f 22bd 99c9 583c
000000f0: 0737 e7bc 8528 f23c f488 033d a530 d63c
00000100: 401d e1bb e0c9 1bbd 5130 08bd 524f 133c
00000110: 50f7 7bbc 37f7 fbbc 2efa 62bc 5e97 043d
00000120: e4ab 5dbd 661e ee3c d128 2bbc db65 c9bc
00000130: 92f0 843c dd26 09bc 424b 25bd 488c d4bc
00000140: a0ae 94bb 28a6 6cbd f5b6 24bc 640d 323d
00000150: 5569 35bd d637 783b a2aa b8bc 7b0d edba
00000160: 2c24 cabb ed5b dfbc 273a 62bc 325e 99bc
00000170: 1590 0a3d fac8 693c 7788 c3bc 1622 1d3d
00000180: 5a44 2bbc fc3a 2e3d 5f3d 4ebc b253 413c
00000190: 61b2 2f3c 8254 68bc db98 8bbc 5bcf 8ebc
000001a0: f0d4 8bbc ce65 173b ede2 883c 5c36 80bc
000001b0: 3170 a2bc bfdc 34bb 41e8 0f3c b463 b0bc
000001c0: c4ad 9abd 3d4e 10bd 5e3a 483d c1d7 e43c
000001d0: b0bb 06bd a57b 353d d63d cebb 0b0a 363c
000001e0: d07c bebc c9a6 123d d2ec 1abc 054d a1bc
000001f0: e7cc 3bbc 731f 7dba a842 14bb 4ffe b73a
00000200: 3a6a 09bd b117 13bc 99ef bdbc 0f25 35ba
00000210: bf28 30bc 5d18 18bd 9932 01bd 4f0f 133d
00000220: b341 85bc 14ae acbc 3df8 163d 47b1 debc
00000230: c48d b9bc b349 fc3b 03e0 683c b0ca e93c
00000240: 5168 4a3c 3ca7 02bd f643 303d 7e22 45bc
00000250: 433d bd3c 4782 2fbc b66d ac3c 5955 423a
00000260: 8af3 103d 8182 95bc d91b b63a 2e16 90bb
00000270: ca22 b1bc ef7e 383c 1386 10bd 3d9f 8e3c
00000280: abbb 24bd d233 74bc 6c49 aaba 38c8 00bd
00000290: c8e4 4abc 3772 083c 450f 173d e010 6b3b
000002a0: 8e34 ecbc 8b8d 803c c57c 37bc 23f2 fdbc
000002b0: 0e74 2fbd ef2b 20bd 618b 7e3b e54a 423c
000002c0: 8286 46bd d48a 363c 3bb0 fc3b 49c1 cd3a
000002d0: 771f f43c ebfe 343c d6fc c03c 5414 85bb
000002e0: f48b f73c 0e11 2f3b 5ece 163c ef04 0cbb
000002f0: 5641 b03c 9e5c 8eba 5ad2 d53c eab9 07bd
00000300: 8dd1 3dbd 7d84 8f3c 8da9 53bc d3c1 823c
00000310: 39ae 75bd 9363 623c 109d 87bc ba21 173d
00000320: ae1e 44bd 0791 3bbb dc5e 233c 9493 6cba
00000330: 8cad 293d 1e48 77bd 472e ef3b e00c 123b
00000340: 49cb 293c 5e6e 50bd b618 ca3b 9dfa 01bb
00000350: ee8a 2cbd b8da 36bb bf91 c43c b52d bbbc
00000360: 0e07 883c 66c0 53bd 8b48 5b3c 098a 42bc
00000370: bd6e f13b 2824 70ba 792e c2bc a44a 43bc
00000380: 8813 bb3b d21f ee3c 2379 d6bc 040d adbc
00000390: bc8d 953c ac51 28bd 192b bb3c 5022 abbd
000003a0: 911a a23c 03d7 123d e461 f13a 0504 55bc
000003b0: 6770 a33c 7313 273d be84 1d3c df16 983c
000003c0: 2fc2 1f3d 6809 023d 4126 0cbc ebee a4bc
000003d0: 7737 c1bc e2cc 8a3c 3344 193b 2162 07bd
000003e0: 36cf 3a3d a3c4 17bd 7142 1ebc a3f6 db3c
000003f0: d0e7 f9bc cb48 0cbd 020c 303d e9ce 1e3d

weight f4 [128, 256]
0.046959266 -0.007139408 0.015066323 -0.0014188347 0.04181779 0.04209026 -0.068117335 -0.023085933
-0.04443543 0.03765235 0.040972147 -0.059366878 -0.049582686 -0.039864596 -0.093772635 0.04707846
0.050352126 -0.008855143 -0.043928012 0.05656733 0.012887248 0.04700499 -0.042304702 -0.011429448
-0.0048632026 0.049686812 0.058405623 0.040713027 -0.0016420934 0.016265342 -0.05842893 -0.024048887
-0.010199087 0.082554385 -0.026517007 -0.030587945 -0.02158436 0.050666302 0.019564234 0.028296603
-0.0042100768 -0.034859065 0.04794142 0.055760693 -0.022092009 -0.071391016 -0.04274519 0.04706906
0.016431475 0.00033730548 -0.04098638 0.06352175 0.03029111 0.0916959 0.00014117548 -0.015248084
-0.031637423 0.023137571 -0.033147782 0.018975515 0.06851914 0.02039297 0.04138621 0.010065111
0.038248923 0.06659734 -0.066972636 -0.0009162482 0.029277647 0.043811478 -0.003916487 -0.04002739
0.023716465 -0.07580476 -0.035503455 0.07738192 -0.08383098 0.02525977 -0.028896287 -0.068896435
-0.016102523 -0.0148071945 0.11077982 -0.035840463 0.03212174 0.0057115154 -0.054090038 -0.048105177
-0.09951426 -0.0803591 -0.03210095 -0.0044584456 0.03652487 -0.004093417 0.0324889 -0.03309592
-0.009201571 0.014163663 0.05439425 0.08499313 -0.0385247 0.0038657638 -0.0695793 -0.03507929
-0.09304304 0.027785985 0.059997797 -0.012079905 -0.048469216 -0.008890886 0.08717707 0.024125716
0.030378917 0.04048896 0.021264609 -0.016591093 0.034801394 0.05992032 0.016629178 -0.033585843
0.013636749 -0.008448284 0.060365275 -0.029552387 0.019089386 0.015188989 0.013135101 -0.01934319
0.009069675 -0.004085661 -0.0038827234 -0.012516766 -0.11828938 -0.0085098 0.034903646 -0.007024822
0.012557987 0.016287321 0.039125886 -0.029491581 0.0935159 0.0467016 0.07897466 0.03296259
-0.050039086 0.04077739 -0.012965041 -0.024913752 -0.059593644 -0.06893329 -0.037090786 -0.0517265
0.05198005 -0.07256794 0.026355326 0.02552628 -0.010718031 0.06332618 0.03416762 0.052239027
0.034209836 -0.06336058 0.045881324 0.0184805 0.036651302 -0.019715214 0.010370251 0.042212173
-0.027315974 0.037780136 -0.0064616334 0.03743892 0.011734214 -0.016758803 0.012803946 0.0017759615
0.006892216 0.03381864 0.00028774497 -0.015302036 0.0072372453 -0.021269727 -0.0038361403 -0.08386722
-0.0021221612 -0.008424822 -0.022853367 -0.018888889 0.015171885 -0.038962316 -0.022398157 -0.0017239527
-0.004817675 -0.01714925 0.06959407 0.03635125 0.031588443 -0.005852838 -0.06233102 -0.036832005
0.029323762 0.06263599 0.045391496 -0.0061355107 0.027177915 -0.013452008 0.019506134 -0.04122734
0.018445626 0.021062134 -0.012137431 -0.056540493 -0.005553523 0.034676854 -0.04504078 0.00065485685
-0.002167466 0.054408677 -0.048148356 -0.020719944 0.020451184 0.03714429 -0.0005125572 -0.05122913
0.009356496 -0.10972201 -0.02164277 -0.006093096 -0.015533067 0.016297016 -0.026494255 0.039665222
0.0914813 0.09952391 -0.0072832755 -0.043873414 0.07010925 -0.061257977 -0.04909991 -0.036356017
-0.0019283106 0.06331728 0.019060496 0.06919831 0.0064872764 -0.0025117644 -0.03342304 0.012405121
0.005071235 -0.018836267 0.014245571 -0.0250917 0.005747905 0.021701988 -0.09163174 -0.08710097
00000000: 5c58 403d b2f1 e9bb bdd8 763c 31f8 b9ba
00000010: 2249 2b3d d666 2c3d 1a81 8bbd b61e bdbc
00000020: ed01 36bd 5a39 1a3d 69d2 273d af2a 73bd
00000030: 3717 4bbd 0f49 23bd de0b c0bd 58d5 403d
00000040: 083e 4e3d 2915 11bc dced 33bd 25b3 673d
00000050: 0925 533c 4e88 403d b247 2dbd 9442 3bbc
00000060: 805b 9fbb 6684 4b3d bc3a 6f3d b4c2 263d
00000070: 833b d7ba e53e 853c 2c53 6fbd 2c02 c5bc
00000080: 121a 27bc 4612 a93d 323a d9bc 9293 fabc
00000090: afd1 b0bc 7887 4f3d 2c45 a03c 47ce e73c
000000a0: aff4 89bb 61c8 0ebd 395e 443d 5365 643d
000000b0: 4dfa b4bc 7435 92bd 9515 2fbd 7dcb 403d
000000c0: 4d9b 863c 60d8 b039 56e1 27bd b117 823d
000000d0: 1025 f83c 0fcb bb3d 8108 1439 1ad3 79bc
000000e0: 3e96 01bd 018b bd3c f8c5 07bd 8a72 9b3c
000000f0: c353 8c3d 280f a73c 9684 293d 23e8 243c
00000100: e7aa 1c3d 3064 883d f328 89bd 6030 70ba
00000110: add7 ef3c aa73 333d e055 80bb c3f3 23bd
00000120: 0849 c23c 873f 9bbd 126c 11bd 697a 9e3d
00000130: 94af abbd 94ed ce3c e8b7 ecbc 9319 8dbd
00000140: 70e9 83bc e099 72bc 88e0 e23d 73cd 12bd
00000150: 1692 033d aa27 bb3b 848d 5dbd ef09 45bd
00000160: 22ce cbbd 5093 a4bd 497c 03bd 2718 92bb
00000170: 1a9b 153d 1222 86bb 1513 053d 968f 07bd
00000180: 30c2 16bc b50e 683c 81cc 5e3d e110 ae3d
00000190: 13cc 1dbd c158 7d3b 987f 8ebd 4daf 0fbd
000001a0: 598d bebd 6f9f e33c 40c0 753d cbea 45bc
000001b0: a887 46bd 14ab 11bc e489 b23d 4ba3 c53c
000001c0: 35dd f83c c0d7 253d 1e33 ae3c 0bea 87bc
000001d0: e88b 0e3d 026f 753d ea39 883c 4f91 09bd
000001e0: ac6c 5f3c ac6a 0abc 9441 773d d917 f2bc
000001f0: 5861 9c3c 3ddb 783c 9b34 573c 9c75 9ebc
00000200: f998 143c 02e1 85bb 4a75 7ebb 1f13 4dbc
00000210: b441 f2bd b06c 0bbc 20f7 0e3d 7a30 e6bb
00000220: 04c0 4d3c fd6c 853c 7742 203d 5498 f1bc
00000230: 4485 bf3d 2d4a 3f3d 77bd a13d c803 073d
00000240: c9f5 4cbd 3106 273d 536b 54bc ed17 ccbc
00000250: 7718 74bd e62c 8dbd 82ec 17bd 2bdf 53bd
00000260: 08e9 543d 809e 94bd 20e7 d73c 7d1c d13c
00000270: ae9a 2fbc 28b1 813d 59f3 0b3d 97f8 553d
00000280: 9d1f 0c3d 31c3 81bd 0eee 3b3d 6b64 973c
00000290: ad1f 163d cd81 a1bc fce7 293c ace6 2c3d
000002a0: c0c5 dfbc 58bf 1a3d 1cbc d3bb 8e59 193d
000002b0: dc40 403c c249 89bc a4c7 513c 61c7 e83a
000002c0: 19d8 e13b 6a85 0a3d 7adc 9639 64b5 7abc
000002d0: 6a26 ed3b da3d aebc c167 7bbb 94c2 abbd
000002e0: f513 0bbb 4408 0abc fc36 bbbc dfbc 9abc
000002f0: 7f93 783c f396 1fbd 577c b7bc 41f6 e1ba
00000300: 96dd 9dbb 957c 8cbc 5687 8e3d 0ce5 143d
00000310: e262 013d 2ac9 bfbb d04e 7fbd 28dd 16bd
00000320: 6338 f03c 4c47 803d 6fec 393d 650c c9bb
00000330: 38a4 de3c d065 5cbc 54cb 9f3c 00de 28bd
00000340: 481b 973c 7f8a ac3c 13dc 46bc 0197 67bd
00000350: 54fa b5bb 5109 0e3d ae7c 38bd b3aa 2b3a
00000360: 0c0c 0ebb a2db 5e3d 3637 45bd dfbc a9bc
00000370: 3e89 a73c 9c24 183d 225d 06ba a3d5 51bd
00000380: fd4b 193c efb5 e0bd 2e4c b1bc 98a8 c7bb
00000390: 687e 7ebc 5281 853c 7b0a d9bc 0078 223d
000003a0: 8c5a bb3d 31d3 cb3d 8ba8 eebb 9cb4 33bd
000003b0: 7095 8f3d a5e9 7abd fd1c 49bd 0cea 14bd
000003c0: 5ebf fcba 7dac 813d c224 9c3c d8b7 8d3d
000003d0: 3893 d43b 6a9c 24bb 99e6 08bd d93e 4b3c
000003e0: 9a2c a63b 844e 9abc 4166 693c 1c8d cdbc
000003f0: ec58 bc3b 5ec8 b13c 6ca9 bbbd fe61 b2bd

bias f4 [128]
0.0031171609 -0.017625924 -0.01041767 0.00899364 -0.11065386 0.03836984 -0.02862312 0.08160808
0.030571135 -0.04414772 0.052751556 0.07185082 -0.04265382 0.061150417 -0.025418153 -0.0035719262
-0.034157693 -0.00083005545 -0.06902291 -0.12067488 0.035433874 0.0017847499 -0.107652195 -0.070119485
0.07028217 -0.021085117 0.039603006 0.06071591 0.060907014 0.039683152 -0.056560874 0.0019593015
-0.09912251 -0.04592332 -0.026398007 -0.049308702 0.06764155 -0.07380933 0.050834294 -0.049026012
-0.003910772 0.002720242 0.10735565 0.031690985 0.0013302444 0.03473714 0.09113936 0.07103143
0.08358184 0.09444232 0.018544933 0.04083298 0.0405534 0.051447384 -0.113617666 0.03731956
-0.034748174 0.07174164 0.020555027 0.018633736 0.063385285 -0.030282507 -0.090356804 0.0069587054
-0.096491046 -0.073876694 0.05119906 -0.04511144 0.012086251 -0.004752511 -0.021652607 0.009043182
-0.017975109 -0.11540579 0.09260115 0.0022982608 -0.0075692832 -0.05365462 -0.041594062 -0.045568377
0.049668364 0.00023641188 0.005462264 0.06730298 -0.036221866 -0.09025287 0.091844976 0.049474537
-0.013458668 0.031891268 0.018436624 0.03440139 -0.03537933 0.02388613 -0.016007213 0.09775153
-0.02713938 0.050981052 0.034039114 0.048085663 0.032650143 -0.052025642 0.00061501935 -0.06652787
-0.08830917 -0.08223768 -0.08861166 0.03187362 -0.024093108 0.005219671 -0.10684571 -0.026132936
-0.09484962 -0.0073806937 -0.078793034 -0.013597674 0.007905647 0.0607407 0.04527476 0.087203905
-0.021865208 0.008998705 -0.004226236 -0.048041634 -0.079296835 0.043564133 0.021151295 -0.058094267
00000000: 4849 4c3b 3e64 90bc e0ae 2abc 0f5a 133c
00000010: 7e9e e2bd b129 1d3d 097b eabc 2322 a73d
00000020: 5170 fa3c 3dd4 34bd 0412 583d 8626 933d
00000030: c6b5 2ebd dc78 7a3d bb39 d0bc fa16 6abb
00000040: f0e8 0bbd 1498 59ba e25b 8dbd 6424 f7bd
00000050: 1c23 113d 45ee e93a c178 dcbd ce9a 8fbd
00000060: 19f0 8f3d b2ba acbc c336 223d 3fb1 783d
00000070: a279 793d cd8a 223d 60ac 67bd a067 003b
00000080: be00 cbbd 171a 3cbd a240 d8bc ecf7 49bd
00000090: a787 8a3d 5929 97bd 9f37 503d 80cf 48bd
000000a0: ef25 80bb 1646 323b 47dd db3d 68ce 013d
000000b0: 985b ae3a 8848 0e3d 46a7 ba3d ed78 913d
000000c0: f52c ab3d fa6a c13d 8beb 973c 7c40 273d
000000d0: 521b 263d 7eba 523d 61b0 e8bd 65dc 183d
000000e0: 1a54 0ebd 48ed 923d 0463 a83c c7a5 983c
000000f0: 25d0 813d 0513 f8bc fd0c b9bd da05 e43b
00000100: 199d c5bd aa4c 97bd 1bb6 513d c6c6 38bd
00000110: 6905 463c f4ba 9bbb cf60 b1bc db29 143c
00000120: 8940 93bc df59 ecbd aca5 bd3d 6b9e 163b
00000130: c007 f8bb f2c4 5bbd 895e 2abd e8a5 3abd
00000140: 0e71 4b3d 55e5 7739 cbfc b23b 25d6 893d
00000150: 615d 14bd 7fd6 b8bd 3819 bc3d d0a5 4a3d
00000160: bf81 5cbc 6ba0 023d 6708 973c 79e8 0c3d
00000170: ebe9 10bd d8ac c33c 8f21 83bc f431 c83d
00000180: 6853 debc 82d1 503d 996c 0b3d 79f5 443d
00000190: 28bc 053d d718 55bd 4039 213a c43f 88bd
000001a0: 70db b4bd 3b6c a8bd 087a b5bd ea8d 023d
000001b0: e95e c5bc c609 ab3b ecd1 dabd bd14 d6bc
000001c0: 8440 c2bd bfd9 f1bb 3e5e a1bd c7c8 5ebc
000001d0: b086 013c 3ecb 783d 0772 393d f697 b23d
000001e0: aa1e b3bc 4e6f 133c 3d7c 8abb 4ec7 44bd
000001f0: 6166 a2bd 4e70 323d 7b45 ad3c 41f4 6dbd

weight f4 [12, 128]
0.02230267 -0.020446546 -0.0509915 0.03251142 -0.011816108 0.04318887 0.024233136 -0.024855
-0.01420026 -0.022802187 -0.04312366 0.03109092 -0.0075572203 0.0014265296 -0.030320127 -0.063270845
0.023244755 0.034214906 0.0056417105 -0.0054373513 -0.008480042 0.045961104 0.010382418 0.0660589
0.07060059 0.03712204 0.053003103 0.04367565 -0.040637333 -0.06434379 0.051064946 -0.03231744
0.016809575 -0.011081242 -0.03454937 -0.03075371 0.037525486 0.08464612 0.021137293 0.037587743
-0.022947513 0.008813767 0.033294596 -0.061229173 -0.0017798617 0.013890225 -0.014880335 0.053972587
0.06171449 0.016606787 -0.03776765 0.009562941 -0.000829015 -0.014709929 -0.0055535375 0.056045603
-0.031455755 -0.046023004 -0.0019870058 0.029865086 0.024620574 -0.062244184 0.017626734 0.013413189
-0.03959685 0.024393205 0.0051512043 -0.040080454 -0.041774765 -0.029372783 0.024515187 0.0077934987
0.013499121 -0.045267187 0.014943946 0.037126377 -0.012511252 -0.027881669 -0.0059758583 -0.07380718
-0.028120749 0.07170763 -0.059793722 0.01247084 0.014467572 -0.035258234 -0.00090356503 0.0018157669
-0.04475249 0.008389128 -0.016083276 -0.041258637 0.048828825 0.006046978 0.033846006 0.013405923
0.00889222 0.006104735 0.013893346 0.028597066 -0.013106627 -0.036344066 0.033571776 -0.08713016
-0.014968154 -0.0009453701 -0.0072198138 -0.03683043 0.0487271 0.051869508 -0.02973499 0.050701026
-0.038053982 -0.0075079296 -0.11151903 -0.054937106 -0.015674671 -0.035685558 -0.04423377 -0.018839503
-0.0180893 0.01357801 -0.011658927 0.0063798823 -0.04333583 0.043768268 0.04166933 -0.037969667
0.023353904 -0.07568491 0.0031181201 -0.0014951881 0.012429024 0.016747069 -0.033718623 -0.033257056
0.10608982 -0.09299645 -0.02126299 0.0049790787 -0.04630266 -0.083279006 -0.02684796 0.0460446
0.014469551 0.060859438 0.00044391447 -0.007895283 -0.059094604 0.06030784 0.027829142 -0.032497007
-0.06733429 0.031403013 0.019776745 -0.07547413 -0.041850675 0.024835663 0.040088985 -0.025128188
0.031056779 -0.0010710348 0.045682482 -0.010351036 -0.024496011 -0.018712314 -0.0021922537 -0.052071683
-0.036192745 0.008068045 -0.0586308 -0.031503502 0.028852442 -0.034318343 -0.0028046481 -0.039938137
0.019798487 -0.049379375 -0.084743604 0.036122914 -0.035604376 -0.059547313 0.05054154 -0.05484898
-0.034247834 0.012178706 0.042153545 0.00637705 -0.044838518 -0.07046466 0.018445712 -0.018463342
0.08935577 -0.017866906 -0.045158982 0.07073857 -0.039724294 0.012443699 0.022339046 0.061712727
-0.05189718 0.050684307 -0.06966917 -0.015606393 0.04375643 -0.0154643785 0.013096134 -0.009945202
-0.009745176 0.030478958 -0.039314758 0.07763508 -0.017803743 -0.01002137 0.015128855 0.02689274
0.051762566 -0.03569487 0.01746642 0.0053897584 -0.0033296833 -0.034779307 -0.05433408 0.032099504
-0.003251431 -0.006864666 -0.041065868 -0.03710526 -0.021913564 0.015376049 -0.07711234 -0.05474627
0.06180438 -0.029133357 -0.04477128 0.037742298 0.08881011 0.028885264 -0.08476023 -0.003838376
-0.010225618 0.10623265 0.044942692 -0.089882515 -0.092988595 -0.075986475 0.14040193 -0.10743129
0.1198451 0.012749306 -0.011969168 -0.00088488054 -0.046316292 0.05104168 -0.05142421 0.040085305
00000000: 17b4 b63c 847f a7bc 77dc 50bd b22a 053d
00000010: 5998 41bc d0e6 303d 9284 c63c b79c cbbc
00000020: 35a8 68bc a7cb babc 6fa2 30bd 63b2 fe3c
00000030: 8fa2 f7bb 64fa ba3a ea61 f8bc 2594 81bd
00000040: c96b be3c ee24 0c3d 19de b83b cf2b b2bb
00000050: e0ef 0abc b641 3c3d 041b 2a3c e349 873d
00000060: 0b97 903d 480d 183d c819 593d 3de5 323d
00000070: 5573 26bd adc6 83bd 7a29 513d 4b5f 04bd
00000080: 3cb4 893c 198e 35bc a483 0dbd 34ef fbbc
00000090: 53b4 193d f25a ad3d 1e28 ad3c 9bf5 193d
000000a0: 6cfc bbbc 9e67 103c ea5f 083d 71cb 7abd
000000b0: 404a e9ba d493 633c a6cc 73bc 5c12 5d3d
000000c0: 55c8 7c3d f50a 883c 40b2 1abd e2ad 1c3c
000000d0: 4152 59ba ea01 71bc 73fa b5bb 1390 653d
000000e0: c0d7 00bd 9e82 3cbd 6d38 02bb a0a7 f43c
000000f0: 16b1 c93c c2f3 7ebd f165 903c fec2 5b3c
00000100: 4e30 22bd 42d4 c73c 6fcb a83b 672b 24bd
00000110: 041c 2bbd 319f f0bc 13d4 c83c 9b60 ff3b
00000120: 6b2b 5d3c 166a 39bd 74d7 743c d411 183d
00000130: fffb 4cbc 1968 e4bc 22d1 c3bb 3828 97bd
00000140: 7c5d e6bc 73db 923d 43ea 74bd 7e52 4c3c
00000150: 6509 6d3c f06a 10bd 39dd 6cba 07ff ed3a
00000160: 634e 37bd 8e72 093c 13c1 83bc d1fe 28bd
00000170: bc00 483d ba25 c63b 1ca2 0a3d 84a4 5b3c
00000180: adb0 113c 3b0a c83b eba0 633c 6544 ea3c
00000190: 2ebd 56bc 84dd 14bd 8f82 093d 4c71 b2bd
000001a0: fd3c 75bc b7d2 77ba 3094 ecbb 81db 16bd
000001b0: 1196 473d 1f75 543d cb96 f3bc e1ab 4f3d
000001c0: 7ede 1bbd 1405 f6bb 1764 e4bd bb05 61bd
000001d0: 2b68 80bc 052b 12bd 782e 35bd 4d55 9abc
000001e0: 0330 94bc 4d76 5e3c 1605 3fbc 550e d13b
000001f0: e980 31bd 5b46 333d 76ad 2a3d 1586 1bbd
00000200: b050 bf3c b100 9bbd 6059 4c3b 30fa c3ba
00000210: 1ba3 4b3c 2631 893c 8a1c 0abd 8d38 08bd
00000220: 9f45 d93d ec74 bebd b92f aebc 8a27 a33b
00000230: dca7 3dbd 2f8e aabd 41f0 dbbc 4399 3c3d
00000240: b211 6d3c bf47 793d 31bd e839 385b 01bc
00000250: 2f0d 72bd 5b05 773d f1f9 e33c 951b 05bd
00000260: 8fe6 89bd 72a0 003d d702 a23c 2e92 9abd
00000270: 9d6b 2bbd 2974 cb3c 5934 243d a1d9 cdbc
00000280: c96a fe3c f761 8cba 8e1d 3b3d 6497 29bc
00000290: dcab c8bc 914a 99bc eaab 0fbb 1e49 55bd
000002a0: d83e 14bd d52f 043c da26 70bd d109 01bd
000002b0: f55b ec3c 6491 0cbd 30ce 37bb 2c96 23bd
000002c0: 7030 a23c 0742 4abd 0e8e adbd 9ff5 133d
000002d0: e5d5 11bd e2e7 73bd a504 4f3d 53a9 60bd
000002e0: 7547 0cbd 3289 473c 32a9 2c3d 93f6 d03b
000002f0: 98a8 37bd c74f 90bd 761b 973c 6f40 97bc
00000300: 2800 b73d 9e5d 92bc a0f8 38bd 62df 903d
00000310: f1b5 22bd a8e0 4b3c 6000 b73c 7cc6 7c3d
00000320: 2392 54bd 599a 4f3d b6ae 8ebd f5b1 7fbc
00000330: f139 333d 4e5e 7dbc 2b91 563c 33f1 22bc
00000340: 3baa 1fbc 02af f93c 8308 21bd 24ff 9e3d
00000350: 28d9 91bc ac30 24bc 04df 773c 2a4e dc3c
00000360: fc04 543d c934 12bd bd15 8f3c 929c b03b
00000370: d136 5abb bf74 0ebd 6a8d 5ebd c57a 033d
00000380: f615 55bb fef0 e0bb af34 28bd affb 17bd
00000390: 1384 b3bc d3eb 7b3c 13ed 9dbd a03d 60bd
000003a0: 9726 7d3d 14a9 eebc 1762 37bd ab97 1a3d
000003b0: 13e2 b53d caa0 ec3c c596 adbd 438d 7bbb
000003c0: 5a89 27bc 8190 d93d d415 383d 5314 b8bd
000003d0: ce70 bebd cc9e 9bbd 86c5 0f3e f004 dcbd
000003e0: 5971 f53d 77e2 503c 541a 44bc 54f7 67ba
000003f0: 27b6 3dbd 1511 513d 31a2 52bd 7d30 243d

bias f4 [12]
-0.056445617 0.027484246 0.07524131 0.039206825 -0.047791563 0.037995145 -0.023628285 0.034820817
0.09523085 0.022815926 0.031376556 0.09758262
00000000: 8533 67bd a426 e13c 1e18 9a3d 5697 203d
00000010: 16c1 43bd cca0 1b3d 1b90 c1bc 46a0 0e3d
00000020: 6408 c33d 77e8 ba3c b484 003d 66d9 c73d
